…
ransform=None, layers_pattern=None, rank_pattern={}, alpha_pattern={}, megatron_config=None, megatron_core='megatron.core', trainable_token_indices=None, loftq_config={}, eva_config=None, corda_config=None, use_dora=False, use_qalora=False, qalora_group_size=16, layer_replication=None, runtime_config=LoraRuntimeConfig(ephemeral_gpu_offload=False), lora_bias=False, lora_dtype=None, lorap_lr_ratio=None, lorap_emb_lr=1e-06)
[INFO:swift] model: PeftModelForCausalLM(
  (base_model): LoraModel(
    (model): MiniCPMV(
      (llm): Qwen2ForCausalLM(
        (model): Qwen2Model(
          (embed_tokens): Embedding(151666, 3584)
          (layers): ModuleList(
            (0-27): 28 x Qwen2DecoderLayer(
              (self_attn): Qwen2Attention(
                (q_proj): lora.Linear(
                  (base_layer): Linear(in_features=3584, out_features=3584, bias=True)
                  (lora_dropout): ModuleDict(
                    (default): Identity()
                  )
                  (lora_A): ModuleDict(
                    (default): Linear(in_features=3584, out_features=32, bias=False)
                  )
                  (lora_B): ModuleDict(
                    (default): Linear(in_features=32, out_features=3584, bias=False)
                  )
                  (lora_embedding_A): ParameterDict()
                  (lora_embedding_B): ParameterDict()
                  (lora_magnitude_vector): ModuleDict()
                )
                (k_proj): lora.Linear(
                  (base_layer): Linear(in_features=3584, out_features=512, bias=True)
                  (lora_dropout): ModuleDict(
                    (default): Identity()
                  )
                  (lora_A): ModuleDict(
                    (default): Linear(in_features=3584, out_features=32, bias=False)
                  )
                  (lora_B): ModuleDict(
                    (default): Linear(in_features=32, out_features=512, bias=False)
                  )
                  (lora_embedding_A): ParameterDict()
                  (lora_embedding_B): ParameterDict()
                  (lora_magnitude_vector): ModuleDict()
                )
                (v_proj): lora.Linear(
                  (base_layer): Linear(in_features=3584, out_features=512, bias=True)
                  (lora_dropout): ModuleDict(
                    (default): Identity()
                  )
                  (lora_A): ModuleDict(
                    (default): Linear(in_features=3584, out_features=32, bias=False)
                  )
                  (lora_B): ModuleDict(
                    (default): Linear(in_features=32, out_features=512, bias=False)
                  )
                  (lora_embedding_A): ParameterDict()
                  (lora_embedding_B): ParameterDict()
                  (lora_magnitude_vector): ModuleDict()
                )
                (o_proj): lora.Linear(
                  (base_layer): Linear(in_features=3584, out_features=3584, bias=False)
                  (lora_dropout): ModuleDict(
                    (default): Identity()
                  )
                  (lora_A): ModuleDict(
                    (default): Linear(in_features=3584, out_features=32, bias=False)
                  )
                  (lora_B): ModuleDict(
                    (default): Linear(in_features=32, out_features=3584, bias=False)
                  )
                  (lora_embedding_A): ParameterDict()
                  (lora_embedding_B): ParameterDict()
                  (lora_magnitude_vector): ModuleDict()
                )
              )
              (mlp): Qwen2MLP(
                (gate_proj): lora.Linear(
                  (base_layer): Linear(in_features=3584, out_features=18944, bias=False)
                  (lora_dropout): ModuleDict(
                    (default): Identity()
                  )
                  (lora_A): ModuleDict(
                    (default): Linear(in_features=3584, out_features=32, bias=False)
                  )
                  (lora_B): ModuleDict(
                    (default): Linear(in_features=32, out_features=18944, bias=False)
                  )
                  (lora_embedding_A): ParameterDict()
                  (lora_embedding_B): ParameterDict()
                  (lora_magnitude_vector): ModuleDict()
                )
                (up_proj): lora.Linear(
                  (base_layer): Linear(in_features=3584, out_features=18944, bias=False)
                  (lora_dropout): ModuleDict(
                    (default): Identity()
                  )
                  (lora_A): ModuleDict(
                    (default): Linear(in_features=3584, out_features=32, bias=False)
                  )
                  (lora_B): ModuleDict(
                    (default): Linear(in_features=32, out_features=18944, bias=False)
                  )
                  (lora_embedding_A): ParameterDict()
                  (lora_embedding_B): ParameterDict()
                  (lora_magnitude_vector): ModuleDict()
                )
                (down_proj): lora.Linear(
                  (base_layer): Linear(in_features=18944, out_features=3584, bias=False)
                  (lora_dropout): ModuleDict(
                    (default): Identity()
                  )
                  (lora_A): ModuleDict(
                    (default): Linear(in_features=18944, out_features=32, bias=False)
                  )
                  (lora_B): ModuleDict(
                    (default): Linear(in_features=32, out_features=3584, bias=False)
                  )
                  (lora_embedding_A): ParameterDict()
                  (lora_embedding_B): ParameterDict()
                  (lora_magnitude_vector): ModuleDict()
                )
                (act_fn): SiLU()
              )
              (input_layernorm): Qwen2RMSNorm((3584,), eps=1e-06)
              (post_attention_layernorm): Qwen2RMSNorm((3584,), eps=1e-06)
            )
          )
          (norm): Qwen2RMSNorm((3584,), eps=1e-06)
          (rotary_emb): Qwen2RotaryEmbedding()
        )
        (lm_head): Linear(in_features=3584, out_features=151666, bias=False)
      )
      (vpm): SiglipVisionTransformer(
        (embeddings): SiglipVisionEmbeddings(
          (patch_embedding): Conv2d(3, 1152, kernel_size=(14, 14), stride=(14, 14), padding=valid)
          (position_embedding): Embedding(4900, 1152)
        )
        (encoder): SiglipEncoder(
          (layers): ModuleList(
            (0-26): 27 x SiglipEncoderLayer(
              (self_attn): SiglipAttention(
                (k_proj): Linear(in_features=1152, out_features=1152, bias=True)
                (v_proj): Linear(in_features=1152, out_features=1152, bias=True)
                (q_proj): Linear(in_features=1152, out_features=1152, bias=True)
                (out_proj): Linear(in_features=1152, out_features=1152, bias=True)
              )
              (layer_norm1): LayerNorm((1152,), eps=1e-06, elementwise_affine=True)
              (mlp): SiglipMLP(
                (activation_fn): PytorchGELUTanh()
                (fc1): Linear(in_features=1152, out_features=4304, bias=True)
                (fc2): Linear(in_features=4304, out_features=1152, bias=True)
              )
              (layer_norm2): LayerNorm((1152,), eps=1e-06, elementwise_affine=True)
            )
          )
        )
        (post_layernorm): LayerNorm((1152,), eps=1e-06, elementwise_affine=True)
      )
      (resampler): Resampler(
        (kv_proj): Linear(in_features=1152, out_features=3584, bias=False)
        (attn): MultiheadAttention(
          (out_proj): Linear(in_features=3584, out_features=3584, bias=True)
        )
        (ln_q): LayerNorm((3584,), eps=1e-06, elementwise_affine=True)
        (ln_kv): LayerNorm((3584,), eps=1e-06, elementwise_affine=True)
        (ln_post): LayerNorm((3584,), eps=1e-06, elementwise_affine=True)
      )
    )
  )
)
[INFO:swift] model_parameter_info: PeftModelForCausalLM: 8179.9155M Params (80.7404M Trainable [0.9871%]), 17.5617M Buffers.
run sh: `/mnt/beegfs/xr/lm_initial_step/envs/swift_env/bin/python3.10 /mnt/beegfs/xr/lm_initial_step/envs/swift_env/lib/python3.10/site-packages/swift/cli/sft.py --model /mnt/beegfs/xr/models/vl/MiniCPM-V-2_6 -
…
ore', trainable_token_indices=None, loftq_config={}, eva_config=None, corda_config=None, use_dora=False, use_qalora=False, qalora_group_size=16, layer_replication=None, runtime_config=LoraRuntimeConfig(ephemeral_gpu_offload=False), lora_bias=False, lora_dtype=None, lorap_lr_ratio=None, lorap_emb_lr=1e-06)
[INFO:swift] model: PeftModelForCausalLM(
  (base_model): LoraModel(
    (model): MultiModalityCausalLM(
      (vision_model): HybridVisionTower(
        (vision_tower_high): CLIPVisionTower(
          (vision_tower): ImageEncoderViT(
            (patch_embed): PatchEmbed(
              (proj): Conv2d(3, 768, kernel_size=(16, 16), stride=(16, 16))
            )
            (blocks): ModuleList(
              (0-11): 12 x Block(
                (norm1): LayerNorm((768,), eps=1e-06, elementwise_affine=True)
                (attn): Attention(
                  (qkv): Linear(in_features=768, out_features=2304, bias=True)
                  (proj): Linear(in_features=768, out_features=768, bias=True)
                )
                (norm2): LayerNorm((768,), eps=1e-06, elementwise_affine=True)
                (mlp): MLPBlock(
                  (lin1): Linear(in_features=768, out_features=3072, bias=True)
                  (lin2): Linear(in_features=3072, out_features=768, bias=True)
                  (act): GELU(approximate='none')
                )
              )
            )
            (neck): Sequential(
              (0): Conv2d(768, 256, kernel_size=(1, 1), stride=(1, 1), bias=False)
              (1): LayerNorm2d()
              (2): Conv2d(256, 256, kernel_size=(3, 3), stride=(1, 1), padding=(1, 1), bias=False)
              (3): LayerNorm2d()
            )
            (downsamples): Sequential(
              (0): Conv2d(256, 512, kernel_size=(3, 3), stride=(2, 2), padding=(1, 1), bias=False)
              (1): Conv2d(512, 1024, kernel_size=(3, 3), stride=(2, 2), padding=(1, 1), bias=False)
            )
            (neck_hd): Sequential(
              (0): Conv2d(768, 256, kernel_size=(1, 1), stride=(1, 1), bias=False)
              (1): LayerNorm2d()
              (2): Conv2d(256, 256, kernel_size=(3, 3), stride=(1, 1), padding=(1, 1), bias=False)
              (3): LayerNorm2d()
            )
          )
          (image_norm): Normalize(mean=[0.48145466, 0.4578275, 0.40821073], std=[0.26862954, 0.26130258, 0.27577711])
        )
        (vision_tower_low): CLIPVisionTower(
          (vision_tower): VisionTransformer(
            (patch_embed): PatchEmbed(
              (proj): Conv2d(3, 1024, kernel_size=(16, 16), stride=(16, 16))
              (norm): Identity()
            )
            (pos_drop): Dropout(p=0.0, inplace=False)
            (patch_drop): Identity()
            (norm_pre): Identity()
            (blocks): Sequential(
              (0): Block(
                (norm1): LayerNorm((1024,), eps=1e-06, elementwise_affine=True)
                (attn): Attention(
                  (qkv): Linear(in_features=1024, out_features=3072, bias=True)
                  (q_norm): Identity()
                  (k_norm): Identity()
                  (attn_drop): Dropout(p=0.0, inplace=False)
                  (proj): Linear(in_features=1024, out_features=1024, bias=True)
                  (proj_drop): Identity()
                )
                (ls1): Identity()
                (drop_path1): Identity()
                (norm2): LayerNorm((1024,), eps=1e-06, elementwise_affine=True)
                (mlp): Mlp(
                  (fc1): Linear(in_features=1024, out_features=4096, bias=True)
                  (act): GELU(approximate='none')
                  (drop1): Dropout(p=0.0, inplace=False)
                  (norm): Identity()
                  (fc2): Linear(in_features=4096, out_features=1024, bias=True)
                  (drop2): Dropout(p=0.0, inplace=False)
                )
                (ls2): Identity()
                (drop_path2): Identity()
              )
              (1): Block(
                (norm1): LayerNorm((1024,), eps=1e-06, elementwise_affine=True)
                (attn): Attention(
                  (qkv): Linear(in_features=1024, out_features=3072, bias=True)
                  (q_norm): Identity()
                  (k_norm): Identity()
                  (attn_drop): Dropout(p=0.0, inplace=False)
                  (proj): Linear(in_features=1024, out_features=1024, bias=True)
                  (proj_drop): Identity()
                )
                (ls1): Identity()
                (drop_path1): Identity()
                (norm2): LayerNorm((1024,), eps=1e-06, elementwise_affine=True)
                (mlp): Mlp(
                  (fc1): Linear(in_features=1024, out_features=4096, bias=True)
                  (act): GELU(approximate='none')
                  (drop1): Dropout(p=0.0, inplace=False)
                  (norm): Identity()
                  (fc2): Linear(in_features=4096, out_features=1024, bias=True)
                  (drop2): Dropout(p=0.0, inplace=False)
                )
                (ls2): Identity()
                (drop_path2): Identity()
              )
              (2): Block(
                (norm1): LayerNorm((1024,), eps=1e-06, elementwise_affine=True)
                (attn): Attention(
                  (qkv): Linear(in_features=1024, out_features=3072, bias=True)
                  (q_norm): Identity()
                  (k_norm): Identity()
                  (attn_drop): Dropout(p=0.0, inplace=False)
                  (proj): Linear(in_features=1024, out_features=1024, bias=True)
                  (proj_drop): Identity()
                )
                (ls1): Identity()
                (drop_path1): Identity()
                (norm2): LayerNorm((1024,), eps=1e-06, elementwise_affine=True)
                (mlp): Mlp(
                  (fc1): Linear(in_features=1024, out_features=4096, bias=True)
                  (act): GELU(approximate='none')
                  (drop1): Dropout(p=0.0, inplace=False)
                  (norm): Identity()
                  (fc2): Linear(in_features=4096, out_features=1024, bias=True)
                  (drop2): Dropout(p=0.0, inplace=False)
                )
                (ls2): Identity()
                (drop_path2): Identity()
              )
              (3): Block(
                (norm1): LayerNorm((1024,), eps=1e-06, elementwise_affine=True)
                (attn): Attention(
                  (qkv): Linear(in_features=1024, out_features=3072, bias=True)
                  (q_norm): Identity()
                  (k_norm): Identity()
                  (attn_drop): Dropout(p=0.0, inplace=False)
                  (proj): Linear(in_features=1024, out_features=1024, bias=True)
                  (proj_drop): Identity()
                )
                (ls1): Identity()
                (drop_path1): Identity()
                (norm2): LayerNorm((1024,), eps=1e-06, elementwise_affine=True)
                (mlp): Mlp(
                  (fc1): Linear(in_features=1024, out_features=4096, bias=True)
                  (act): GELU(approximate='none')
                  (drop1): Dropout(p=0.0, inplace=False)
                  (norm): Identity()
                  (fc2): Linear(in_features=4096, out_features=1024, bias=True)
                  (drop2): Dropout(p=0.0, inplace=False)
                )
                (ls2): Identity()
                (drop_path2): Identity()
              )
              (4): Block(
                (norm1): LayerNorm((1024,), eps=1e-06, elementwise_affine=True)
                (attn): Attention(
                  (qkv): Linear(in_features=1024, out_features=3072, bias=True)
                  (q_norm): Identity()
                  (k_norm): Identity()
                  (attn_drop): Dropout(p=0.0, inplace=False)
                  (proj): Linear(in_features=1024, out_features=1024, bias=True)
                  (proj_drop): Identity()
                )
                (ls1): Identity()
                (drop_path1): Identity()
                (norm2): LayerNorm((1024,), eps=1e-06, elementwise_affine=True)
                (mlp): Mlp(
                  (fc1): Linear(in_features=1024, out_features=4096, bias=True)
                  (act): GELU(approximate='none')
                  (drop1): Dropout(p=0.0, inplace=False)
                  (norm): Identity()
                  (fc2): Linear(in_features=4096, out_features=1024, bias=True)
                  (drop2): Dropout(p=0.0, inplace=False)
                )
                (ls2): Identity()
                (drop_path2): Identity()
              )
              (5): Block(
                (norm1): LayerNorm((1024,), eps=1e-06, elementwise_affine=True)
                (attn): Attention(
                  (qkv): Linear(in_features=1024, out_features=3072, bias=True)
                  (q_norm): Identity()
                  (k_norm): Identity()
                  (attn_drop): Dropout(p=0.0, inplace=False)
                  (proj): Linear(in_features=1024, out_features=1024, bias=True)
                  (proj_drop): Identity()
                )
                (ls1): Identity()
                (drop_path1): Identity()
                (norm2): LayerNorm((1024,), eps=1e-06, elementwise_affine=True)
                (mlp): Mlp(
                  (fc1): Linear(in_features=1024, out_features=4096, bias=True)
                  (act): GELU(approximate='none')
                  (drop1): Dropout(p=0.0, inplace=False)
                  (norm): Identity()
                  (fc2): Linear(in_features=4096, out_features=1024, bias=True)
                  (drop2): Dropout(p=0.0, inplace=False)
                )
                (ls2): Identity()
                (drop_path2): Identity()
              )
              (6): Block(
                (norm1): LayerNorm((1024,), eps=1e-06, elementwise_affine=True)
                (attn): Attention(
                  (qkv): Linear(in_features=1024, out_features=3072, bias=True)
                  (q_norm): Identity()
                  (k_norm): Identity()
                  (attn_drop): Dropout(p=0.0, inplace=False)
                  (proj): Linear(in_features=1024, out_features=1024, bias=True)
                  (proj_drop): Identity()
                )
                (ls1): Identity()
                (drop_path1): Identity()
                (norm2): LayerNorm((1024,), eps=1e-06, elementwise_affine=True)
                (mlp): Mlp(
                  (fc1): Linear(in_features=1024, out_features=4096, bias=True)
                  (act): GELU(approximate='none')
                  (drop1): Dropout(p=0.0, inplace=False)
                  (norm): Identity()
                  (fc2): Linear(in_features=4096, out_features=1024, bias=True)
                  (drop2): Dropout(p=0.0, inplace=False)
                )
                (ls2): Identity()
                (drop_path2): Identity()
              )
              (7): Block(
                (norm1): LayerNorm((1024,), eps=1e-06, elementwise_affine=True)
                (attn): Attention(
                  (qkv): Linear(in_features=1024, out_features=3072, bias=True)
                  (q_norm): Identity()
                  (k_norm): Identity()
                  (attn_drop): Dropout(p=0.0, inplace=False)
                  (proj): Linear(in_features=1024, out_features=1024, bias=True)
                  (proj_drop): Identity()
                )
                (ls1): Identity()
                (drop_path1): Identity()
                (norm2): LayerNorm((1024,), eps=1e-06, elementwise_affine=True)
                (mlp): Mlp(
                  (fc1): Linear(in_features=1024, out_features=4096, bias=True)
                  (act): GELU(approximate='none')
                  (drop1): Dropout(p=0.0, inplace=False)
                  (norm): Identity()
                  (fc2): Linear(in_features=4096, out_features=1024, bias=True)
                  (drop2): Dropout(p=0.0, inplace=False)
                )
                (ls2): Identity()
                (drop_path2): Identity()
              )
              (8): Block(
                (norm1): LayerNorm((1024,), eps=1e-06, elementwise_affine=True)
                (attn): Attention(
                  (qkv): Linear(in_features=1024, out_features=3072, bias=True)
                  (q_norm): Identity()
                  (k_norm): Identity()
                  (attn_drop): Dropout(p=0.0, inplace=False)
                  (proj): Linear(in_features=1024, out_features=1024, bias=True)
                  (proj_drop): Identity()
                )
                (ls1): Identity()
                (drop_path1): Identity()
                (norm2): LayerNorm((1024,), eps=1e-06, elementwise_affine=True)
                (mlp): Mlp(
                  (fc1): Linear(in_features=1024, out_features=4096, bias=True)
                  (act): GELU(approximate='none')
                  (drop1): Dropout(p=0.0, inplace=False)
                  (norm): Identity()
                  (fc2): Linear(in_features=4096, out_features=1024, bias=True)
                  (drop2): Dropout(p=0.0, inplace=False)
                )
                (ls2): Identity()
                (drop_path2): Identity()
              )
              (9): Block(
                (norm1): LayerNorm((1024,), eps=1e-06, elementwise_affine=True)
                (attn): Attention(
                  (qkv): Linear(in_features=1024, out_features=3072, bias=True)
                  (q_norm): Identity()
                  (k_norm): Identity()
                  (attn_drop): Dropout(p=0.0, inplace=False)
                  (proj): Linear(in_features=1024, out_features=1024, bias=True)
                  (proj_drop): Identity()
                )
                (ls1): Identity()
                (drop_path1): Identity()
                (norm2): LayerNorm((1024,), eps=1e-06, elementwise_affine=True)
                (mlp): Mlp(
                  (fc1): Linear(in_features=1024, out_features=4096, bias=True)
                  (act): GELU(approximate='none')
                  (drop1): Dropout(p=0.0, inplace=False)
                  (norm): Identity()
                  (fc2): Linear(in_features=4096, out_features=1024, bias=True)
                  (drop2): Dropout(p=0.0, inplace=False)
                )
                (ls2): Identity()
                (drop_path2): Identity()
              )
              (10): Block(
                (norm1): LayerNorm((1024,), eps=1e-06, elementwise_affine=True)
                (attn): Attention(
                  (qkv): Linear(in_features=1024, out_features=3072, bias=True)
                  (q_norm): Identity()
                  (k_norm): Identity()
                  (attn_drop): Dropout(p=0.0, inplace=False)
                  (proj): Linear(in_features=1024, out_features=1024, bias=True)
                  (proj_drop): Identity()
                )
                (ls1): Identity()
                (drop_path1): Identity()
                (norm2): LayerNorm((1024,), eps=1e-06, elementwise_affine=True)
                (mlp): Mlp(
                  (fc1): Linear(in_features=1024, out_features=4096, bias=True)
                  (act): GELU(approximate='none')
                  (drop1): Dropout(p=0.0, inplace=False)
                  (norm): Identity()
                  (fc2): Linear(in_features=4096, out_features=1024, bias=True)
                  (drop2): Dropout(p=0.0, inplace=False)
                )
                (ls2): Identity()
                (drop_path2): Identity()
              )
              (11): Block(
                (norm1): LayerNorm((1024,), eps=1e-06, elementwise_affine=True)
                (attn): Attention(
                  (qkv): Linear(in_features=1024, out_features=3072, bias=True)
                  (q_norm): Identity()
                  (k_norm): Identity()
                  (attn_drop): Dropout(p=0.0, inplace=False)
                  (proj): Linear(in_features=1024, out_features=1024, bias=True)
                  (proj_drop): Identity()
                )
                (ls1): Identity()
                (drop_path1): Identity()
                (norm2): LayerNorm((1024,), eps=1e-06, elementwise_affine=True)
                (mlp): Mlp(
                  (fc1): Linear(in_features=1024, out_features=4096, bias=True)
                  (act): GELU(approximate='none')
                  (drop1): Dropout(p=0.0, inplace=False)
                  (norm): Identity()
                  (fc2): Linear(in_features=4096, out_features=1024, bias=True)
                  (drop2): Dropout(p=0.0, inplace=False)
                )
                (ls2): Identity()
                (drop_path2): Identity()
              )
              (12): Block(
                (norm1): LayerNorm((1024,), eps=1e-06, elementwise_affine=True)
                (attn): Attention(
                  (qkv): Linear(in_features=1024, out_features=3072, bias=True)
                  (q_norm): Identity()
                  (k_norm): Identity()
                  (attn_drop): Dropout(p=0.0, inplace=False)
                  (proj): Linear(in_features=1024, out_features=1024, bias=True)
                  (proj_drop): Identity()
                )
                (ls1): Identity()
                (drop_path1): Identity()
                (norm2): LayerNorm((1024,), eps=1e-06, elementwise_affine=True)
                (mlp): Mlp(
                  (fc1): Linear(in_features=1024, out_features=4096, bias=True)
                  (act): GELU(approximate='none')
                  (drop1): Dropout(p=0.0, inplace=False)
                  (norm): Identity()
                  (fc2): Linear(in_features=4096, out_features=1024, bias=True)
                  (drop2): Dropout(p=0.0, inplace=False)
                )
                (ls2): Identity()
                (drop_path2): Identity()
              )
              (13): Block(
                (norm1): LayerNorm((1024,), eps=1e-06, elementwise_affine=True)
                (attn): Attention(
                  (qkv): Linear(in_features=1024, out_features=3072, bias=True)
                  (q_norm): Identity()
                  (k_norm): Identity()
                  (attn_drop): Dropout(p=0.0, inplace=False)
                  (proj): Linear(in_features=1024, out_features=1024, bias=True)
                  (proj_drop): Identity()
                )
                (ls1): Identity()
                (drop_path1): Identity()
                (norm2): LayerNorm((1024,), eps=1e-06, elementwise_affine=True)
                (mlp): Mlp(
                  (fc1): Linear(in_features=1024, out_features=4096, bias=True)
                  (act): GELU(approximate='none')
                  (drop1): Dropout(p=0.0, inplace=False)
                  (norm): Identity()
                  (fc2): Linear(in_features=4096, out_features=1024, bias=True)
                  (drop2): Dropout(p=0.0, inplace=False)
                )
                (ls2): Identity()
                (drop_path2): Identity()
              )
              (14): Block(
                (norm1): LayerNorm((1024,), eps=1e-06, elementwise_affine=True)
                (attn): Attention(
                  (qkv): Linear(in_features=1024, out_features=3072, bias=True)
                  (q_norm): Identity()
                  (k_norm): Identity()
                  (attn_drop): Dropout(p=0.0, inplace=False)
                  (proj): Linear(in_features=1024, out_features=1024, bias=True)
                  (proj_drop): Identity()
                )
                (ls1): Identity()
                (drop_path1): Identity()
                (norm2): LayerNorm((1024,), eps=1e-06, elementwise_affine=True)
                (mlp): Mlp(
                  (fc1): Linear(in_features=1024, out_features=4096, bias=True)
                  (act): GELU(approximate='none')
                  (drop1): Dropout(p=0.0, inplace=False)
                  (norm): Identity()
                  (fc2): Linear(in_features=4096, out_features=1024, bias=True)
                  (drop2): Dropout(p=0.0, inplace=False)
                )
                (ls2): Identity()
                (drop_path2): Identity()
              )
              (15): Block(
                (norm1): LayerNorm((1024,), eps=1e-06, elementwise_affine=True)
                (attn): Attention(
                  (qkv): Linear(in_features=1024, out_features=3072, bias=True)
                  (q_norm): Identity()
                  (k_norm): Identity()
                  (attn_drop): Dropout(p=0.0, inplace=False)
                  (proj): Linear(in_features=1024, out_features=1024, bias=True)
                  (proj_drop): Identity()
                )
                (ls1): Identity()
                (drop_path1): Identity()
                (norm2): LayerNorm((1024,), eps=1e-06, elementwise_affine=True)
                (mlp): Mlp(
                  (fc1): Linear(in_features=1024, out_features=4096, bias=True)
                  (act): GELU(approximate='none')
                  (drop1): Dropout(p=0.0, inplace=False)
                  (norm): Identity()
                  (fc2): Linear(in_features=4096, out_features=1024, bias=True)
                  (drop2): Dropout(p=0.0, inplace=False)
                )
                (ls2): Identity()
                (drop_path2): Identity()
              )
              (16): Block(
                (norm1): LayerNorm((1024,), eps=1e-06, elementwise_affine=True)
                (attn): Attention(
                  (qkv): Linear(in_features=1024, out_features=3072, bias=True)
                  (q_norm): Identity()
                  (k_norm): Identity()
                  (attn_drop): Dropout(p=0.0, inplace=False)
                  (proj): Linear(in_features=1024, out_features=1024, bias=True)
                  (proj_drop): Identity()
                )
                (ls1): Identity()
                (drop_path1): Identity()
                (norm2): LayerNorm((1024,), eps=1e-06, elementwise_affine=True)
                (mlp): Mlp(
                  (fc1): Linear(in_features=1024, out_features=4096, bias=True)
                  (act): GELU(approximate='none')
                  (drop1): Dropout(p=0.0, inplace=False)
                  (norm): Identity()
                  (fc2): Linear(in_features=4096, out_features=1024, bias=True)
                  (drop2): Dropout(p=0.0, inplace=False)
                )
                (ls2): Identity()
                (drop_path2): Identity()
              )
              (17): Block(
                (norm1): LayerNorm((1024,), eps=1e-06, elementwise_affine=True)
                (attn): Attention(
                  (qkv): Linear(in_features=1024, out_features=3072, bias=True)
                  (q_norm): Identity()
                  (k_norm): Identity()
                  (attn_drop): Dropout(p=0.0, inplace=False)
                  (proj): Linear(in_features=1024, out_features=1024, bias=True)
                  (proj_drop): Identity()
                )
                (ls1): Identity()
                (drop_path1): Identity()
                (norm2): LayerNorm((1024,), eps=1e-06, elementwise_affine=True)
                (mlp): Mlp(
                  (fc1): Linear(in_features=1024, out_features=4096, bias=True)
                  (act): GELU(approximate='none')
                  (drop1): Dropout(p=0.0, inplace=False)
                  (norm): Identity()
                  (fc2): Linear(in_features=4096, out_features=1024, bias=True)
                  (drop2): Dropout(p=0.0, inplace=False)
                )
                (ls2): Identity()
                (drop_path2): Identity()
              )
              (18): Block(
                (norm1): LayerNorm((1024,), eps=1e-06, elementwise_affine=True)
                (attn): Attention(
                  (qkv): Linear(in_features=1024, out_features=3072, bias=True)
                  (q_norm): Identity()
                  (k_norm): Identity()
                  (attn_drop): Dropout(p=0.0, inplace=False)
                  (proj): Linear(in_features=1024, out_features=1024, bias=True)
                  (proj_drop): Identity()
                )
                (ls1): Identity()
                (drop_path1): Identity()
                (norm2): LayerNorm((1024,), eps=1e-06, elementwise_affine=True)
                (mlp): Mlp(
                  (fc1): Linear(in_features=1024, out_features=4096, bias=True)
                  (act): GELU(approximate='none')
                  (drop1): Dropout(p=0.0, inplace=False)
                  (norm): Identity()
                  (fc2): Linear(in_features=4096, out_features=1024, bias=True)
                  (drop2): Dropout(p=0.0, inplace=False)
                )
                (ls2): Identity()
                (drop_path2): Identity()
              )
              (19): Block(
                (norm1): LayerNorm((1024,), eps=1e-06, elementwise_affine=True)
                (attn): Attention(
                  (qkv): Linear(in_features=1024, out_features=3072, bias=True)
                  (q_norm): Identity()
                  (k_norm): Identity()
                  (attn_drop): Dropout(p=0.0, inplace=False)
                  (proj): Linear(in_features=1024, out_features=1024, bias=True)
                  (proj_drop): Identity()
                )
                (ls1): Identity()
                (drop_path1): Identity()
                (norm2): LayerNorm((1024,), eps=1e-06, elementwise_affine=True)
                (mlp): Mlp(
                  (fc1): Linear(in_features=1024, out_features=4096, bias=True)
                  (act): GELU(approximate='none')
                  (drop1): Dropout(p=0.0, inplace=False)
                  (norm): Identity()
                  (fc2): Linear(in_features=4096, out_features=1024, bias=True)
                  (drop2): Dropout(p=0.0, inplace=False)
                )
                (ls2): Identity()
                (drop_path2): Identity()
              )
              (20): Block(
                (norm1): LayerNorm((1024,), eps=1e-06, elementwise_affine=True)
                (attn): Attention(
                  (qkv): Linear(in_features=1024, out_features=3072, bias=True)
                  (q_norm): Identity()
                  (k_norm): Identity()
                  (attn_drop): Dropout(p=0.0, inplace=False)
                  (proj): Linear(in_features=1024, out_features=1024, bias=True)
                  (proj_drop): Identity()
                )
                (ls1): Identity()
                (drop_path1): Identity()
                (norm2): LayerNorm((1024,), eps=1e-06, elementwise_affine=True)
                (mlp): Mlp(
                  (fc1): Linear(in_features=1024, out_features=4096, bias=True)
                  (act): GELU(approximate='none')
                  (drop1): Dropout(p=0.0, inplace=False)
                  (norm): Identity()
                  (fc2): Linear(in_features=4096, out_features=1024, bias=True)
                  (drop2): Dropout(p=0.0, inplace=False)
                )
                (ls2): Identity()
                (drop_path2): Identity()
              )
              (21): Block(
                (norm1): LayerNorm((1024,), eps=1e-06, elementwise_affine=True)
                (attn): Attention(
                  (qkv): Linear(in_features=1024, out_features=3072, bias=True)
                  (q_norm): Identity()
                  (k_norm): Identity()
                  (attn_drop): Dropout(p=0.0, inplace=False)
                  (proj): Linear(in_features=1024, out_features=1024, bias=True)
                  (proj_drop): Identity()
                )
                (ls1): Identity()
                (drop_path1): Identity()
                (norm2): LayerNorm((1024,), eps=1e-06, elementwise_affine=True)
                (mlp): Mlp(
                  (fc1): Linear(in_features=1024, out_features=4096, bias=True)
                  (act): GELU(approximate='none')
                  (drop1): Dropout(p=0.0, inplace=False)
                  (norm): Identity()
                  (fc2): Linear(in_features=4096, out_features=1024, bias=True)
                  (drop2): Dropout(p=0.0, inplace=False)
                )
                (ls2): Identity()
                (drop_path2): Identity()
              )
              (22): Block(
                (norm1): LayerNorm((1024,), eps=1e-06, elementwise_affine=True)
                (attn): Attention(
                  (qkv): Linear(in_features=1024, out_features=3072, bias=True)
                  (q_norm): Identity()
                  (k_norm): Identity()
                  (attn_drop): Dropout(p=0.0, inplace=False)
                  (proj): Linear(in_features=1024, out_features=1024, bias=True)
                  (proj_drop): Identity()
                )
                (ls1): Identity()
                (drop_path1): Identity()
                (norm2): LayerNorm((1024,), eps=1e-06, elementwise_affine=True)
                (mlp): Mlp(
                  (fc1): Linear(in_features=1024, out_features=4096, bias=True)
                  (act): GELU(approximate='none')
                  (drop1): Dropout(p=0.0, inplace=False)
                  (norm): Identity()
                  (fc2): Linear(in_features=4096, out_features=1024, bias=True)
                  (drop2): Dropout(p=0.0, inplace=False)
                )
                (ls2): Identity()
                (drop_path2): Identity()
              )
              (23): Block(
                (norm1): LayerNorm((1024,), eps=1e-06, elementwise_affine=True)
                (attn): Attention(
                  (qkv): Linear(in_features=1024, out_features=3072, bias=True)
                  (q_norm): Identity()
                  (k_norm): Identity()
                  (attn_drop): Dropout(p=0.0, inplace=False)
                  (proj): Linear(in_features=1024, out_features=1024, bias=True)
                  (proj_drop): Identity()
                )
                (ls1): Identity()
                (drop_path1): Identity()
                (norm2): LayerNorm((1024,), eps=1e-06, elementwise_affine=True)
                (mlp): Mlp(
                  (fc1): Linear(in_features=1024, out_features=4096, bias=True)
                  (act): GELU(approximate='none')
                  (drop1): Dropout(p=0.0, inplace=False)
                  (norm): Identity()
                  (fc2): Linear(in_features=4096, out_features=1024, bias=True)
                  (drop2): Dropout(p=0.0, inplace=False)
                )
                (ls2): Identity()
                (drop_path2): Identity()
              )
            )
            (norm): LayerNorm((1024,), eps=1e-06, elementwise_affine=True)
            (attn_pool): AttentionPoolLatent(
              (q): Linear(in_features=1024, out_features=1024, bias=True)
              (kv): Linear(in_features=1024, out_features=2048, bias=True)
              (q_norm): Identity()
              (k_norm): Identity()
              (proj): Linear(in_features=1024, out_features=1024, bias=True)
              (proj_drop): Dropout(p=0.0, inplace=False)
              (norm): LayerNorm((1024,), eps=1e-06, elementwise_affine=True)
              (mlp): Mlp(
                (fc1): Linear(in_features=1024, out_features=4096, bias=True)
                (act): GELU(approximate='none')
                (drop1): Dropout(p=0.0, inplace=False)
                (norm): Identity()
                (fc2): Linear(in_features=4096, out_features=1024, bias=True)
                (drop2): Dropout(p=0.0, inplace=False)
              )
            )
            (fc_norm): Identity()
            (head_drop): Dropout(p=0.0, inplace=False)
            (head): Identity()
          )
          (image_norm): Normalize(mean=[0.5, 0.5, 0.5], std=[0.5, 0.5, 0.5])
        )
        (high_layer_norm): LayerNorm((1024,), eps=1e-05, elementwise_affine=True)
        (low_layer_norm): LayerNorm((1024,), eps=1e-05, elementwise_affine=True)
        (resize): Resize(size=384, interpolation=bilinear, max_size=None, antialias=True)
      )
      (aligner): MlpProjector(
        (high_up_proj): Linear(in_features=1024, out_features=2048, bias=True)
        (low_up_proj): Linear(in_features=1024, out_features=2048, bias=True)
        (layers): Sequential(
          (0): GELU(approximate='none')
          (1): Linear(in_features=4096, out_features=4096, bias=True)
        )
      )
      (language_model): LlamaForCausalLM(
        (model): LlamaModel(
          (embed_tokens): Embedding(102400, 4096)
          (layers): ModuleList(
            (0-29): 30 x LlamaDecoderLayer(
              (self_attn): LlamaAttention(
                (q_proj): lora.Linear(
                  (base_layer): Linear(in_features=4096, out_features=4096, bias=False)
                  (lora_dropout): ModuleDict(
                    (default): Identity()
                  )
                  (lora_A): ModuleDict(
                    (default): Linear(in_features=4096, out_features=32, bias=False)
                  )
                  (lora_B): ModuleDict(
                    (default): Linear(in_features=32, out_features=4096, bias=False)
                  )
                  (lora_embedding_A): ParameterDict()
                  (lora_embedding_B): ParameterDict()
                  (lora_magnitude_vector): ModuleDict()
                )
                (k_proj): lora.Linear(
                  (base_layer): Linear(in_features=4096, out_features=4096, bias=False)
                  (lora_dropout): ModuleDict(
                    (default): Identity()
                  )
                  (lora_A): ModuleDict(
                    (default): Linear(in_features=4096, out_features=32, bias=False)
                  )
                  (lora_B): ModuleDict(
                    (default): Linear(in_features=32, out_features=4096, bias=False)
                  )
                  (lora_embedding_A): ParameterDict()
                  (lora_embedding_B): ParameterDict()
                  (lora_magnitude_vector): ModuleDict()
                )
                (v_proj): lora.Linear(
                  (base_layer): Linear(in_features=4096, out_features=4096, bias=False)
                  (lora_dropout): ModuleDict(
                    (default): Identity()
                  )
                  (lora_A): ModuleDict(
                    (default): Linear(in_features=4096, out_features=32, bias=False)
                  )
                  (lora_B): ModuleDict(
                    (default): Linear(in_features=32, out_features=4096, bias=False)
                  )
                  (lora_embedding_A): ParameterDict()
                  (lora_embedding_B): ParameterDict()
                  (lora_magnitude_vector): ModuleDict()
                )
                (o_proj): lora.Linear(
                  (base_layer): Linear(in_features=4096, out_features=4096, bias=False)
                  (lora_dropout): ModuleDict(
                    (default): Identity()
                  )
                  (lora_A): ModuleDict(
                    (default): Linear(in_features=4096, out_features=32, bias=False)
                  )
                  (lora_B): ModuleDict(
                    (default): Linear(in_features=32, out_features=4096, bias=False)
                  )
                  (lora_embedding_A): ParameterDict()
                  (lora_embedding_B): ParameterDict()
                  (lora_magnitude_vector): ModuleDict()
                )
              )
              (mlp): LlamaMLP(
                (gate_proj): lora.Linear(
                  (base_layer): Linear(in_features=4096, out_features=11008, bias=False)
                  (lora_dropout): ModuleDict(
                    (default): Identity()
                  )
                  (lora_A): ModuleDict(
                    (default): Linear(in_features=4096, out_features=32, bias=False)
                  )
                  (lora_B): ModuleDict(
                    (default): Linear(in_features=32, out_features=11008, bias=False)
                  )
                  (lora_embedding_A): ParameterDict()
                  (lora_embedding_B): ParameterDict()
                  (lora_magnitude_vector): ModuleDict()
                )
                (up_proj): lora.Linear(
                  (base_layer): Linear(in_features=4096, out_features=11008, bias=False)
                  (lora_dropout): ModuleDict(
                    (default): Identity()
                  )
                  (lora_A): ModuleDict(
                    (default): Linear(in_features=4096, out_features=32, bias=False)
                  )
                  (lora_B): ModuleDict(
                    (default): Linear(in_features=32, out_features=11008, bias=False)
                  )
                  (lora_embedding_A): ParameterDict()
                  (lora_embedding_B): ParameterDict()
                  (lora_magnitude_vector): ModuleDict()
                )
                (down_proj): lora.Linear(
                  (base_layer): Linear(in_features=11008, out_features=4096, bias=False)
                  (lora_dropout): ModuleDict(
                    (default): Identity()
                  )
                  (lora_A): ModuleDict(
                    (default): Linear(in_features=11008, out_features=32, bias=False)
                  )
                  (lora_B): ModuleDict(
                    (default): Linear(in_features=32, out_features=4096, bias=False)
                  )
                  (lora_embedding_A): ParameterDict()
                  (lora_embedding_B): ParameterDict()
                  (lora_magnitude_vector): ModuleDict()
                )
                (act_fn): SiLU()
              )
              (input_layernorm): LlamaRMSNorm((4096,), eps=1e-06)
              (post_attention_layernorm): LlamaRMSNorm((4096,), eps=1e-06)
            )
          )
          (norm): LlamaRMSNorm((4096,), eps=1e-06)
          (rotary_emb): LlamaRotaryEmbedding()
        )
        (lm_head): Linear(in_features=4096, out_features=102400, bias=False)
      )
    )
  )
)
[INFO:swift] model_parameter_info: PeftModelForCausalLM: 7418.9468M Params (74.9568M Trainable [1.0103%]), 0.0001M Buffers.
/mnt/beegfs/xr/lm_initial_step/envs/swift_env/lib/python3.10/site-packages/swift/trainers/mixin.py:94: FutureWarning: `tokenizer` is deprecated and will be removed in version 5.0.0 for `Seq2SeqTrainer.__init__`. Use `processing_class` instead.
…
core='megatron.core', trainable_token_indices=None, loftq_config={}, eva_config=None, corda_config=None, use_dora=False, use_qalora=False, qalora_group_size=16, layer_replication=None, runtime_config=LoraRuntimeConfig(ephemeral_gpu_offload=False), lora_bias=False, lora_dtype=None, lorap_lr_ratio=None, lorap_emb_lr=1e-06)
[INFO:swift] model: PeftModelForCausalLM(
  (base_model): LoraModel(
    (model): LlavaNextForConditionalGeneration(
      (vision_tower): CLIPVisionModel(
        (vision_model): CLIPVisionTransformer(
          (embeddings): CLIPVisionEmbeddings(
            (patch_embedding): Conv2d(3, 1024, kernel_size=(14, 14), stride=(14, 14), bias=False)
            (position_embedding): Embedding(577, 1024)
          )
          (pre_layrnorm): LayerNorm((1024,), eps=1e-05, elementwise_affine=True)
          (encoder): CLIPEncoder(
            (layers): ModuleList(
              (0-23): 24 x CLIPEncoderLayer(
                (self_attn): CLIPSdpaAttention(
                  (k_proj): Linear(in_features=1024, out_features=1024, bias=True)
                  (v_proj): Linear(in_features=1024, out_features=1024, bias=True)
                  (q_proj): Linear(in_features=1024, out_features=1024, bias=True)
                  (out_proj): Linear(in_features=1024, out_features=1024, bias=True)
                )
                (layer_norm1): LayerNorm((1024,), eps=1e-05, elementwise_affine=True)
                (mlp): CLIPMLP(
                  (activation_fn): QuickGELUActivation()
                  (fc1): Linear(in_features=1024, out_features=4096, bias=True)
                  (fc2): Linear(in_features=4096, out_features=1024, bias=True)
                )
                (layer_norm2): LayerNorm((1024,), eps=1e-05, elementwise_affine=True)
              )
            )
          )
          (post_layernorm): LayerNorm((1024,), eps=1e-05, elementwise_affine=True)
        )
      )
      (multi_modal_projector): LlavaNextMultiModalProjector(
        (linear_1): Linear(in_features=1024, out_features=4096, bias=True)
        (act): GELUActivation()
        (linear_2): Linear(in_features=4096, out_features=4096, bias=True)
      )
      (language_model): MistralForCausalLM(
        (model): MistralModel(
          (embed_tokens): Embedding(32064, 4096)
          (layers): ModuleList(
            (0-31): 32 x MistralDecoderLayer(
              (self_attn): MistralAttention(
                (q_proj): lora.Linear(
                  (base_layer): Linear(in_features=4096, out_features=4096, bias=False)
                  (lora_dropout): ModuleDict(
                    (default): Identity()
                  )
                  (lora_A): ModuleDict(
                    (default): Linear(in_features=4096, out_features=32, bias=False)
                  )
                  (lora_B): ModuleDict(
                    (default): Linear(in_features=32, out_features=4096, bias=False)
                  )
                  (lora_embedding_A): ParameterDict()
                  (lora_embedding_B): ParameterDict()
                  (lora_magnitude_vector): ModuleDict()
                )
                (k_proj): lora.Linear(
                  (base_layer): Linear(in_features=4096, out_features=1024, bias=False)
                  (lora_dropout): ModuleDict(
                    (default): Identity()
                  )
                  (lora_A): ModuleDict(
                    (default): Linear(in_features=4096, out_features=32, bias=False)
                  )
                  (lora_B): ModuleDict(
                    (default): Linear(in_features=32, out_features=1024, bias=False)
                  )
                  (lora_embedding_A): ParameterDict()
                  (lora_embedding_B): ParameterDict()
                  (lora_magnitude_vector): ModuleDict()
                )
                (v_proj): lora.Linear(
                  (base_layer): Linear(in_features=4096, out_features=1024, bias=False)
                  (lora_dropout): ModuleDict(
                    (default): Identity()
                  )
                  (lora_A): ModuleDict(
                    (default): Linear(in_features=4096, out_features=32, bias=False)
                  )
                  (lora_B): ModuleDict(
                    (default): Linear(in_features=32, out_features=1024, bias=False)
                  )
                  (lora_embedding_A): ParameterDict()
                  (lora_embedding_B): ParameterDict()
                  (lora_magnitude_vector): ModuleDict()
                )
                (o_proj): lora.Linear(
                  (base_layer): Linear(in_features=4096, out_features=4096, bias=False)
                  (lora_dropout): ModuleDict(
                    (default): Identity()
                  )
                  (lora_A): ModuleDict(
                    (default): Linear(in_features=4096, out_features=32, bias=False)
                  )
                  (lora_B): ModuleDict(
                    (default): Linear(in_features=32, out_features=4096, bias=False)
                  )
                  (lora_embedding_A): ParameterDict()
                  (lora_embedding_B): ParameterDict()
                  (lora_magnitude_vector): ModuleDict()
                )
              )
              (mlp): MistralMLP(
                (gate_proj): lora.Linear(
                  (base_layer): Linear(in_features=4096, out_features=14336, bias=False)
                  (lora_dropout): ModuleDict(
                    (default): Identity()
                  )
                  (lora_A): ModuleDict(
                    (default): Linear(in_features=4096, out_features=32, bias=False)
                  )
                  (lora_B): ModuleDict(
                    (default): Linear(in_features=32, out_features=14336, bias=False)
                  )
                  (lora_embedding_A): ParameterDict()
                  (lora_embedding_B): ParameterDict()
                  (lora_magnitude_vector): ModuleDict()
                )
                (up_proj): lora.Linear(
                  (base_layer): Linear(in_features=4096, out_features=14336, bias=False)
                  (lora_dropout): ModuleDict(
                    (default): Identity()
                  )
                  (lora_A): ModuleDict(
                    (default): Linear(in_features=4096, out_features=32, bias=False)
                  )
                  (lora_B): ModuleDict(
                    (default): Linear(in_features=32, out_features=14336, bias=False)
                  )
                  (lora_embedding_A): ParameterDict()
                  (lora_embedding_B): ParameterDict()
                  (lora_magnitude_vector): ModuleDict()
                )
                (down_proj): lora.Linear(
                  (base_layer): Linear(in_features=14336, out_features=4096, bias=False)
                  (lora_dropout): ModuleDict(
                    (default): Identity()
                  )
                  (lora_A): ModuleDict(
                    (default): Linear(in_features=14336, out_features=32, bias=False)
                  )
                  (lora_B): ModuleDict(
                    (default): Linear(in_features=32, out_features=4096, bias=False)
                  )
                  (lora_embedding_A): ParameterDict()
                  (lora_embedding_B): ParameterDict()
                  (lora_magnitude_vector): ModuleDict()
                )
                (act_fn): SiLU()
              )
              (input_layernorm): MistralRMSNorm((4096,), eps=1e-05)
              (post_attention_layernorm): MistralRMSNorm((4096,), eps=1e-05)
            )
          )
          (norm): MistralRMSNorm((4096,), eps=1e-05)
          (rotary_emb): MistralRotaryEmbedding()
        )
        (lm_head): Linear(in_features=4096, out_features=32064, bias=False)
      )
    )
  )
)
[INFO:swift] model_parameter_info: PeftModelForCausalLM: 7650.6337M Params (83.8861M Trainable [1.0965%]), 0.0006M Buffers.
/mnt/beegfs/xr/lm_initial_step/envs/swift_env/lib/python3.10/site-packages/swift/trainers/mixin.py:94: FutureWarning: `tokenizer` is deprecated and will be removed in version 5.0.0 for `Seq2SeqTrainer.__init__`. Use `processing_class` instead.
…
a_weights=True, layers_to_transform=None, layers_pattern=None, rank_pattern={}, alpha_pattern={}, megatron_config=None, megatron_core='megatron.core', trainable_token_indices=None, loftq_config={}, eva_config=None, corda_config=None, use_dora=False, use_qalora=False, qalora_group_size=16, layer_replication=None, runtime_config=LoraRuntimeConfig(ephemeral_gpu_offload=False), lora_bias=False, lora_dtype=None, lorap_lr_ratio=None, lorap_emb_lr=1e-06)
[INFO:swift] model: PeftModelForCausalLM(
  (base_model): LoraModel(
    (model): Phi3VForCausalLM(
      (model): Phi3VModel(
        (embed_tokens): Embedding(32064, 3072, padding_idx=32000)
        (embed_dropout): Dropout(p=0.0, inplace=False)
        (vision_embed_tokens): Phi3ImageEmbedding(
          (drop): Dropout(p=0.0, inplace=False)
          (wte): Embedding(32064, 3072, padding_idx=32000)
          (img_processor): CLIPVisionModel(
            (vision_model): CLIPVisionTransformer(
              (embeddings): CLIPVisionEmbeddings(
                (patch_embedding): Conv2d(3, 1024, kernel_size=(14, 14), stride=(14, 14), bias=False)
                (position_embedding): Embedding(577, 1024)
              )
              (pre_layrnorm): LayerNorm((1024,), eps=1e-05, elementwise_affine=True)
              (encoder): CLIPEncoder(
                (layers): ModuleList(
                  (0-23): 24 x CLIPEncoderLayer(
                    (layer_norm1): LayerNorm((1024,), eps=1e-05, elementwise_affine=True)
                    (mlp): CLIPMLP(
                      (activation_fn): QuickGELUActivation()
                      (fc1): Linear(in_features=1024, out_features=4096, bias=True)
                      (fc2): Linear(in_features=4096, out_features=1024, bias=True)
                    )
                    (layer_norm2): LayerNorm((1024,), eps=1e-05, elementwise_affine=True)
                    (self_attn): CLIPAttentionFA2(
                      (k_proj): Linear(in_features=1024, out_features=1024, bias=True)
                      (v_proj): Linear(in_features=1024, out_features=1024, bias=True)
                      (q_proj): Linear(in_features=1024, out_features=1024, bias=True)
                      (out_proj): Linear(in_features=1024, out_features=1024, bias=True)
                    )
                  )
                )
              )
              (post_layernorm): LayerNorm((1024,), eps=1e-05, elementwise_affine=True)
            )
          )
          (img_projection): Sequential(
            (0): Linear(in_features=4096, out_features=3072, bias=True)
            (1): GELU(approximate='none')
            (2): Linear(in_features=3072, out_features=3072, bias=True)
          )
        )
        (layers): ModuleList(
          (0-31): 32 x Phi3DecoderLayer(
            (self_attn): Phi3FlashAttention2(
              (o_proj): lora.Linear(
                (base_layer): Linear(in_features=3072, out_features=3072, bias=False)
                (lora_dropout): ModuleDict(
                  (default): Identity()
                )
                (lora_A): ModuleDict(
                  (default): Linear(in_features=3072, out_features=32, bias=False)
                )
                (lora_B): ModuleDict(
                  (default): Linear(in_features=32, out_features=3072, bias=False)
                )
                (lora_embedding_A): ParameterDict()
                (lora_embedding_B): ParameterDict()
                (lora_magnitude_vector): ModuleDict()
              )
              (qkv_proj): lora.Linear(
                (base_layer): Linear(in_features=3072, out_features=9216, bias=False)
                (lora_dropout): ModuleDict(
                  (default): Identity()
                )
                (lora_A): ModuleDict(
                  (default): Linear(in_features=3072, out_features=32, bias=False)
                )
                (lora_B): ModuleDict(
                  (default): Linear(in_features=32, out_features=9216, bias=False)
                )
                (lora_embedding_A): ParameterDict()
                (lora_embedding_B): ParameterDict()
                (lora_magnitude_vector): ModuleDict()
              )
              (rotary_emb): Phi3SuScaledRotaryEmbedding()
            )
            (mlp): Phi3MLP(
              (gate_up_proj): lora.Linear(
                (base_layer): Linear(in_features=3072, out_features=16384, bias=False)
                (lora_dropout): ModuleDict(
                  (default): Identity()
                )
                (lora_A): ModuleDict(
                  (default): Linear(in_features=3072, out_features=32, bias=False)
                )
                (lora_B): ModuleDict(
                  (default): Linear(in_features=32, out_features=16384, bias=False)
                )
                (lora_embedding_A): ParameterDict()
                (lora_embedding_B): ParameterDict()
                (lora_magnitude_vector): ModuleDict()
              )
              (down_proj): lora.Linear(
                (base_layer): Linear(in_features=8192, out_features=3072, bias=False)
                (lora_dropout): ModuleDict(
                  (default): Identity()
                )
                (lora_A): ModuleDict(
                  (default): Linear(in_features=8192, out_features=32, bias=False)
                )
                (lora_B): ModuleDict(
                  (default): Linear(in_features=32, out_features=3072, bias=False)
                )
                (lora_embedding_A): ParameterDict()
                (lora_embedding_B): ParameterDict()
                (lora_magnitude_vector): ModuleDict()
              )
              (activation_fn): SiLU()
            )
            (input_layernorm): Phi3RMSNorm()
            (resid_attn_dropout): Dropout(p=0.0, inplace=False)
            (resid_mlp_dropout): Dropout(p=0.0, inplace=False)
            (post_attention_layernorm): Phi3RMSNorm()
          )
        )
        (norm): Phi3RMSNorm()
      )
      (lm_head): Linear(in_features=3072, out_features=32064, bias=False)
    )
  )
)
[INFO:swift] model_parameter_info: PeftModelForCausalLM: 4196.9531M Params (50.3316M Trainable [1.1992%]), 0.0006M Buffers.
/mnt/beegfs/xr/lm_initial_step/envs/swift_env/lib/python3.10/site-packages/swift/trainers/mixin.py:94: FutureWarning: `tokenizer` is deprecated and will be removed in version 5.0.0 for `Seq2SeqTrainer.__init__`. Use `processing_class` instead.
…
k_pattern={}, alpha_pattern={}, megatron_config=None, megatron_core='megatron.core', trainable_token_indices=None, loftq_config={}, eva_config=None, corda_config=None, use_dora=False, use_qalora=False, qalora_group_size=16, layer_replication=None, runtime_config=LoraRuntimeConfig(ephemeral_gpu_offload=False), lora_bias=False, lora_dtype=None, lorap_lr_ratio=None, lorap_emb_lr=1e-06)
[INFO:swift] model: PeftModelForCausalLM(
  (base_model): LoraModel(
    (model): InternVLChatModel(
      (vision_model): InternVisionModel(
        (embeddings): InternVisionEmbeddings(
          (patch_embedding): Conv2d(3, 1024, kernel_size=(14, 14), stride=(14, 14))
        )
        (encoder): InternVisionEncoder(
          (layers): ModuleList(
            (0): InternVisionEncoderLayer(
              (attn): InternAttention(
                (qkv): Linear(in_features=1024, out_features=3072, bias=True)
                (attn_drop): Dropout(p=0.0, inplace=False)
                (proj_drop): Dropout(p=0.0, inplace=False)
                (inner_attn): FlashAttention()
                (proj): Linear(in_features=1024, out_features=1024, bias=True)
              )
              (mlp): InternMLP(
                (act): GELUActivation()
                (fc1): Linear(in_features=1024, out_features=4096, bias=True)
                (fc2): Linear(in_features=4096, out_features=1024, bias=True)
              )
              (norm1): LayerNorm((1024,), eps=1e-06, elementwise_affine=True)
              (norm2): LayerNorm((1024,), eps=1e-06, elementwise_affine=True)
              (drop_path1): Identity()
              (drop_path2): Identity()
            )
            (1): InternVisionEncoderLayer(
              (attn): InternAttention(
                (qkv): Linear(in_features=1024, out_features=3072, bias=True)
                (attn_drop): Dropout(p=0.0, inplace=False)
                (proj_drop): Dropout(p=0.0, inplace=False)
                (inner_attn): FlashAttention()
                (proj): Linear(in_features=1024, out_features=1024, bias=True)
              )
              (mlp): InternMLP(
                (act): GELUActivation()
                (fc1): Linear(in_features=1024, out_features=4096, bias=True)
                (fc2): Linear(in_features=4096, out_features=1024, bias=True)
              )
              (norm1): LayerNorm((1024,), eps=1e-06, elementwise_affine=True)
              (norm2): LayerNorm((1024,), eps=1e-06, elementwise_affine=True)
              (drop_path1): DropPath(drop_prob=0.004)
              (drop_path2): DropPath(drop_prob=0.004)
            )
            (2): InternVisionEncoderLayer(
              (attn): InternAttention(
                (qkv): Linear(in_features=1024, out_features=3072, bias=True)
                (attn_drop): Dropout(p=0.0, inplace=False)
                (proj_drop): Dropout(p=0.0, inplace=False)
                (inner_attn): FlashAttention()
                (proj): Linear(in_features=1024, out_features=1024, bias=True)
              )
              (mlp): InternMLP(
                (act): GELUActivation()
                (fc1): Linear(in_features=1024, out_features=4096, bias=True)
                (fc2): Linear(in_features=4096, out_features=1024, bias=True)
              )
              (norm1): LayerNorm((1024,), eps=1e-06, elementwise_affine=True)
              (norm2): LayerNorm((1024,), eps=1e-06, elementwise_affine=True)
              (drop_path1): DropPath(drop_prob=0.009)
              (drop_path2): DropPath(drop_prob=0.009)
            )
            (3): InternVisionEncoderLayer(
              (attn): InternAttention(
                (qkv): Linear(in_features=1024, out_features=3072, bias=True)
                (attn_drop): Dropout(p=0.0, inplace=False)
                (proj_drop): Dropout(p=0.0, inplace=False)
                (inner_attn): FlashAttention()
                (proj): Linear(in_features=1024, out_features=1024, bias=True)
              )
              (mlp): InternMLP(
                (act): GELUActivation()
                (fc1): Linear(in_features=1024, out_features=4096, bias=True)
                (fc2): Linear(in_features=4096, out_features=1024, bias=True)
              )
              (norm1): LayerNorm((1024,), eps=1e-06, elementwise_affine=True)
              (norm2): LayerNorm((1024,), eps=1e-06, elementwise_affine=True)
              (drop_path1): DropPath(drop_prob=0.013)
              (drop_path2): DropPath(drop_prob=0.013)
            )
            (4): InternVisionEncoderLayer(
              (attn): InternAttention(
                (qkv): Linear(in_features=1024, out_features=3072, bias=True)
                (attn_drop): Dropout(p=0.0, inplace=False)
                (proj_drop): Dropout(p=0.0, inplace=False)
                (inner_attn): FlashAttention()
                (proj): Linear(in_features=1024, out_features=1024, bias=True)
              )
              (mlp): InternMLP(
                (act): GELUActivation()
                (fc1): Linear(in_features=1024, out_features=4096, bias=True)
                (fc2): Linear(in_features=4096, out_features=1024, bias=True)
              )
              (norm1): LayerNorm((1024,), eps=1e-06, elementwise_affine=True)
              (norm2): LayerNorm((1024,), eps=1e-06, elementwise_affine=True)
              (drop_path1): DropPath(drop_prob=0.017)
              (drop_path2): DropPath(drop_prob=0.017)
            )
            (5): InternVisionEncoderLayer(
              (attn): InternAttention(
                (qkv): Linear(in_features=1024, out_features=3072, bias=True)
                (attn_drop): Dropout(p=0.0, inplace=False)
                (proj_drop): Dropout(p=0.0, inplace=False)
                (inner_attn): FlashAttention()
                (proj): Linear(in_features=1024, out_features=1024, bias=True)
              )
              (mlp): InternMLP(
                (act): GELUActivation()
                (fc1): Linear(in_features=1024, out_features=4096, bias=True)
                (fc2): Linear(in_features=4096, out_features=1024, bias=True)
              )
              (norm1): LayerNorm((1024,), eps=1e-06, elementwise_affine=True)
              (norm2): LayerNorm((1024,), eps=1e-06, elementwise_affine=True)
              (drop_path1): DropPath(drop_prob=0.022)
              (drop_path2): DropPath(drop_prob=0.022)
            )
            (6): InternVisionEncoderLayer(
              (attn): InternAttention(
                (qkv): Linear(in_features=1024, out_features=3072, bias=True)
                (attn_drop): Dropout(p=0.0, inplace=False)
                (proj_drop): Dropout(p=0.0, inplace=False)
                (inner_attn): FlashAttention()
                (proj): Linear(in_features=1024, out_features=1024, bias=True)
              )
              (mlp): InternMLP(
                (act): GELUActivation()
                (fc1): Linear(in_features=1024, out_features=4096, bias=True)
                (fc2): Linear(in_features=4096, out_features=1024, bias=True)
              )
              (norm1): LayerNorm((1024,), eps=1e-06, elementwise_affine=True)
              (norm2): LayerNorm((1024,), eps=1e-06, elementwise_affine=True)
              (drop_path1): DropPath(drop_prob=0.026)
              (drop_path2): DropPath(drop_prob=0.026)
            )
            (7): InternVisionEncoderLayer(
              (attn): InternAttention(
                (qkv): Linear(in_features=1024, out_features=3072, bias=True)
                (attn_drop): Dropout(p=0.0, inplace=False)
                (proj_drop): Dropout(p=0.0, inplace=False)
                (inner_attn): FlashAttention()
                (proj): Linear(in_features=1024, out_features=1024, bias=True)
              )
              (mlp): InternMLP(
                (act): GELUActivation()
                (fc1): Linear(in_features=1024, out_features=4096, bias=True)
                (fc2): Linear(in_features=4096, out_features=1024, bias=True)
              )
              (norm1): LayerNorm((1024,), eps=1e-06, elementwise_affine=True)
              (norm2): LayerNorm((1024,), eps=1e-06, elementwise_affine=True)
              (drop_path1): DropPath(drop_prob=0.030)
              (drop_path2): DropPath(drop_prob=0.030)
            )
            (8): InternVisionEncoderLayer(
              (attn): InternAttention(
                (qkv): Linear(in_features=1024, out_features=3072, bias=True)
                (attn_drop): Dropout(p=0.0, inplace=False)
                (proj_drop): Dropout(p=0.0, inplace=False)
                (inner_attn): FlashAttention()
                (proj): Linear(in_features=1024, out_features=1024, bias=True)
              )
              (mlp): InternMLP(
                (act): GELUActivation()
                (fc1): Linear(in_features=1024, out_features=4096, bias=True)
                (fc2): Linear(in_features=4096, out_features=1024, bias=True)
              )
              (norm1): LayerNorm((1024,), eps=1e-06, elementwise_affine=True)
              (norm2): LayerNorm((1024,), eps=1e-06, elementwise_affine=True)
              (drop_path1): DropPath(drop_prob=0.035)
              (drop_path2): DropPath(drop_prob=0.035)
            )
            (9): InternVisionEncoderLayer(
              (attn): InternAttention(
                (qkv): Linear(in_features=1024, out_features=3072, bias=True)
                (attn_drop): Dropout(p=0.0, inplace=False)
                (proj_drop): Dropout(p=0.0, inplace=False)
                (inner_attn): FlashAttention()
                (proj): Linear(in_features=1024, out_features=1024, bias=True)
              )
              (mlp): InternMLP(
                (act): GELUActivation()
                (fc1): Linear(in_features=1024, out_features=4096, bias=True)
                (fc2): Linear(in_features=4096, out_features=1024, bias=True)
              )
              (norm1): LayerNorm((1024,), eps=1e-06, elementwise_affine=True)
              (norm2): LayerNorm((1024,), eps=1e-06, elementwise_affine=True)
              (drop_path1): DropPath(drop_prob=0.039)
              (drop_path2): DropPath(drop_prob=0.039)
            )
            (10): InternVisionEncoderLayer(
              (attn): InternAttention(
                (qkv): Linear(in_features=1024, out_features=3072, bias=True)
                (attn_drop): Dropout(p=0.0, inplace=False)
                (proj_drop): Dropout(p=0.0, inplace=False)
                (inner_attn): FlashAttention()
                (proj): Linear(in_features=1024, out_features=1024, bias=True)
              )
              (mlp): InternMLP(
                (act): GELUActivation()
                (fc1): Linear(in_features=1024, out_features=4096, bias=True)
                (fc2): Linear(in_features=4096, out_features=1024, bias=True)
              )
              (norm1): LayerNorm((1024,), eps=1e-06, elementwise_affine=True)
              (norm2): LayerNorm((1024,), eps=1e-06, elementwise_affine=True)
              (drop_path1): DropPath(drop_prob=0.043)
              (drop_path2): DropPath(drop_prob=0.043)
            )
            (11): InternVisionEncoderLayer(
              (attn): InternAttention(
                (qkv): Linear(in_features=1024, out_features=3072, bias=True)
                (attn_drop): Dropout(p=0.0, inplace=False)
                (proj_drop): Dropout(p=0.0, inplace=False)
                (inner_attn): FlashAttention()
                (proj): Linear(in_features=1024, out_features=1024, bias=True)
              )
              (mlp): InternMLP(
                (act): GELUActivation()
                (fc1): Linear(in_features=1024, out_features=4096, bias=True)
                (fc2): Linear(in_features=4096, out_features=1024, bias=True)
              )
              (norm1): LayerNorm((1024,), eps=1e-06, elementwise_affine=True)
              (norm2): LayerNorm((1024,), eps=1e-06, elementwise_affine=True)
              (drop_path1): DropPath(drop_prob=0.048)
              (drop_path2): DropPath(drop_prob=0.048)
            )
            (12): InternVisionEncoderLayer(
              (attn): InternAttention(
                (qkv): Linear(in_features=1024, out_features=3072, bias=True)
                (attn_drop): Dropout(p=0.0, inplace=False)
                (proj_drop): Dropout(p=0.0, inplace=False)
                (inner_attn): FlashAttention()
                (proj): Linear(in_features=1024, out_features=1024, bias=True)
              )
              (mlp): InternMLP(
                (act): GELUActivation()
                (fc1): Linear(in_features=1024, out_features=4096, bias=True)
                (fc2): Linear(in_features=4096, out_features=1024, bias=True)
              )
              (norm1): LayerNorm((1024,), eps=1e-06, elementwise_affine=True)
              (norm2): LayerNorm((1024,), eps=1e-06, elementwise_affine=True)
              (drop_path1): DropPath(drop_prob=0.052)
              (drop_path2): DropPath(drop_prob=0.052)
            )
            (13): InternVisionEncoderLayer(
              (attn): InternAttention(
                (qkv): Linear(in_features=1024, out_features=3072, bias=True)
                (attn_drop): Dropout(p=0.0, inplace=False)
                (proj_drop): Dropout(p=0.0, inplace=False)
                (inner_attn): FlashAttention()
                (proj): Linear(in_features=1024, out_features=1024, bias=True)
              )
              (mlp): InternMLP(
                (act): GELUActivation()
                (fc1): Linear(in_features=1024, out_features=4096, bias=True)
                (fc2): Linear(in_features=4096, out_features=1024, bias=True)
              )
              (norm1): LayerNorm((1024,), eps=1e-06, elementwise_affine=True)
              (norm2): LayerNorm((1024,), eps=1e-06, elementwise_affine=True)
              (drop_path1): DropPath(drop_prob=0.057)
              (drop_path2): DropPath(drop_prob=0.057)
            )
            (14): InternVisionEncoderLayer(
              (attn): InternAttention(
                (qkv): Linear(in_features=1024, out_features=3072, bias=True)
                (attn_drop): Dropout(p=0.0, inplace=False)
                (proj_drop): Dropout(p=0.0, inplace=False)
                (inner_attn): FlashAttention()
                (proj): Linear(in_features=1024, out_features=1024, bias=True)
              )
              (mlp): InternMLP(
                (act): GELUActivation()
                (fc1): Linear(in_features=1024, out_features=4096, bias=True)
                (fc2): Linear(in_features=4096, out_features=1024, bias=True)
              )
              (norm1): LayerNorm((1024,), eps=1e-06, elementwise_affine=True)
              (norm2): LayerNorm((1024,), eps=1e-06, elementwise_affine=True)
              (drop_path1): DropPath(drop_prob=0.061)
              (drop_path2): DropPath(drop_prob=0.061)
            )
            (15): InternVisionEncoderLayer(
              (attn): InternAttention(
                (qkv): Linear(in_features=1024, out_features=3072, bias=True)
                (attn_drop): Dropout(p=0.0, inplace=False)
                (proj_drop): Dropout(p=0.0, inplace=False)
                (inner_attn): FlashAttention()
                (proj): Linear(in_features=1024, out_features=1024, bias=True)
              )
              (mlp): InternMLP(
                (act): GELUActivation()
                (fc1): Linear(in_features=1024, out_features=4096, bias=True)
                (fc2): Linear(in_features=4096, out_features=1024, bias=True)
              )
              (norm1): LayerNorm((1024,), eps=1e-06, elementwise_affine=True)
              (norm2): LayerNorm((1024,), eps=1e-06, elementwise_affine=True)
              (drop_path1): DropPath(drop_prob=0.065)
              (drop_path2): DropPath(drop_prob=0.065)
            )
            (16): InternVisionEncoderLayer(
              (attn): InternAttention(
                (qkv): Linear(in_features=1024, out_features=3072, bias=True)
                (attn_drop): Dropout(p=0.0, inplace=False)
                (proj_drop): Dropout(p=0.0, inplace=False)
                (inner_attn): FlashAttention()
                (proj): Linear(in_features=1024, out_features=1024, bias=True)
              )
              (mlp): InternMLP(
                (act): GELUActivation()
                (fc1): Linear(in_features=1024, out_features=4096, bias=True)
                (fc2): Linear(in_features=4096, out_features=1024, bias=True)
              )
              (norm1): LayerNorm((1024,), eps=1e-06, elementwise_affine=True)
              (norm2): LayerNorm((1024,), eps=1e-06, elementwise_affine=True)
              (drop_path1): DropPath(drop_prob=0.070)
              (drop_path2): DropPath(drop_prob=0.070)
            )
            (17): InternVisionEncoderLayer(
              (attn): InternAttention(
                (qkv): Linear(in_features=1024, out_features=3072, bias=True)
                (attn_drop): Dropout(p=0.0, inplace=False)
                (proj_drop): Dropout(p=0.0, inplace=False)
                (inner_attn): FlashAttention()
                (proj): Linear(in_features=1024, out_features=1024, bias=True)
              )
              (mlp): InternMLP(
                (act): GELUActivation()
                (fc1): Linear(in_features=1024, out_features=4096, bias=True)
                (fc2): Linear(in_features=4096, out_features=1024, bias=True)
              )
              (norm1): LayerNorm((1024,), eps=1e-06, elementwise_affine=True)
              (norm2): LayerNorm((1024,), eps=1e-06, elementwise_affine=True)
              (drop_path1): DropPath(drop_prob=0.074)
              (drop_path2): DropPath(drop_prob=0.074)
            )
            (18): InternVisionEncoderLayer(
              (attn): InternAttention(
                (qkv): Linear(in_features=1024, out_features=3072, bias=True)
                (attn_drop): Dropout(p=0.0, inplace=False)
                (proj_drop): Dropout(p=0.0, inplace=False)
                (inner_attn): FlashAttention()
                (proj): Linear(in_features=1024, out_features=1024, bias=True)
              )
              (mlp): InternMLP(
                (act): GELUActivation()
                (fc1): Linear(in_features=1024, out_features=4096, bias=True)
                (fc2): Linear(in_features=4096, out_features=1024, bias=True)
              )
              (norm1): LayerNorm((1024,), eps=1e-06, elementwise_affine=True)
              (norm2): LayerNorm((1024,), eps=1e-06, elementwise_affine=True)
              (drop_path1): DropPath(drop_prob=0.078)
              (drop_path2): DropPath(drop_prob=0.078)
            )
            (19): InternVisionEncoderLayer(
              (attn): InternAttention(
                (qkv): Linear(in_features=1024, out_features=3072, bias=True)
                (attn_drop): Dropout(p=0.0, inplace=False)
                (proj_drop): Dropout(p=0.0, inplace=False)
                (inner_attn): FlashAttention()
                (proj): Linear(in_features=1024, out_features=1024, bias=True)
              )
              (mlp): InternMLP(
                (act): GELUActivation()
                (fc1): Linear(in_features=1024, out_features=4096, bias=True)
                (fc2): Linear(in_features=4096, out_features=1024, bias=True)
              )
              (norm1): LayerNorm((1024,), eps=1e-06, elementwise_affine=True)
              (norm2): LayerNorm((1024,), eps=1e-06, elementwise_affine=True)
              (drop_path1): DropPath(drop_prob=0.083)
              (drop_path2): DropPath(drop_prob=0.083)
            )
            (20): InternVisionEncoderLayer(
              (attn): InternAttention(
                (qkv): Linear(in_features=1024, out_features=3072, bias=True)
                (attn_drop): Dropout(p=0.0, inplace=False)
                (proj_drop): Dropout(p=0.0, inplace=False)
                (inner_attn): FlashAttention()
                (proj): Linear(in_features=1024, out_features=1024, bias=True)
              )
              (mlp): InternMLP(
                (act): GELUActivation()
                (fc1): Linear(in_features=1024, out_features=4096, bias=True)
                (fc2): Linear(in_features=4096, out_features=1024, bias=True)
              )
              (norm1): LayerNorm((1024,), eps=1e-06, elementwise_affine=True)
              (norm2): LayerNorm((1024,), eps=1e-06, elementwise_affine=True)
              (drop_path1): DropPath(drop_prob=0.087)
              (drop_path2): DropPath(drop_prob=0.087)
            )
            (21): InternVisionEncoderLayer(
              (attn): InternAttention(
                (qkv): Linear(in_features=1024, out_features=3072, bias=True)
                (attn_drop): Dropout(p=0.0, inplace=False)
                (proj_drop): Dropout(p=0.0, inplace=False)
                (inner_attn): FlashAttention()
                (proj): Linear(in_features=1024, out_features=1024, bias=True)
              )
              (mlp): InternMLP(
                (act): GELUActivation()
                (fc1): Linear(in_features=1024, out_features=4096, bias=True)
                (fc2): Linear(in_features=4096, out_features=1024, bias=True)
              )
              (norm1): LayerNorm((1024,), eps=1e-06, elementwise_affine=True)
              (norm2): LayerNorm((1024,), eps=1e-06, elementwise_affine=True)
              (drop_path1): DropPath(drop_prob=0.091)
              (drop_path2): DropPath(drop_prob=0.091)
            )
            (22): InternVisionEncoderLayer(
              (attn): InternAttention(
                (qkv): Linear(in_features=1024, out_features=3072, bias=True)
                (attn_drop): Dropout(p=0.0, inplace=False)
                (proj_drop): Dropout(p=0.0, inplace=False)
                (inner_attn): FlashAttention()
                (proj): Linear(in_features=1024, out_features=1024, bias=True)
              )
              (mlp): InternMLP(
                (act): GELUActivation()
                (fc1): Linear(in_features=1024, out_features=4096, bias=True)
                (fc2): Linear(in_features=4096, out_features=1024, bias=True)
              )
              (norm1): LayerNorm((1024,), eps=1e-06, elementwise_affine=True)
              (norm2): LayerNorm((1024,), eps=1e-06, elementwise_affine=True)
              (drop_path1): DropPath(drop_prob=0.096)
              (drop_path2): DropPath(drop_prob=0.096)
            )
            (23): InternVisionEncoderLayer(
              (attn): InternAttention(
                (qkv): Linear(in_features=1024, out_features=3072, bias=True)
                (attn_drop): Dropout(p=0.0, inplace=False)
                (proj_drop): Dropout(p=0.0, inplace=False)
                (inner_attn): FlashAttention()
                (proj): Linear(in_features=1024, out_features=1024, bias=True)
              )
              (mlp): InternMLP(
                (act): GELUActivation()
                (fc1): Linear(in_features=1024, out_features=4096, bias=True)
                (fc2): Linear(in_features=4096, out_features=1024, bias=True)
              )
              (norm1): LayerNorm((1024,), eps=1e-06, elementwise_affine=True)
              (norm2): LayerNorm((1024,), eps=1e-06, elementwise_affine=True)
              (drop_path1): DropPath(drop_prob=0.100)
              (drop_path2): DropPath(drop_prob=0.100)
            )
          )
        )
      )
      (language_model): Qwen2ForCausalLM(
        (model): Qwen2Model(
          (embed_tokens): Embedding(151674, 3584)
          (layers): ModuleList(
            (0-27): 28 x Qwen2DecoderLayer(
              (self_attn): Qwen2Attention(
                (q_proj): lora.Linear(
                  (base_layer): Linear(in_features=3584, out_features=3584, bias=True)
                  (lora_dropout): ModuleDict(
                    (default): Identity()
                  )
                  (lora_A): ModuleDict(
                    (default): Linear(in_features=3584, out_features=32, bias=False)
                  )
                  (lora_B): ModuleDict(
                    (default): Linear(in_features=32, out_features=3584, bias=False)
                  )
                  (lora_embedding_A): ParameterDict()
                  (lora_embedding_B): ParameterDict()
                  (lora_magnitude_vector): ModuleDict()
                )
                (k_proj): lora.Linear(
                  (base_layer): Linear(in_features=3584, out_features=512, bias=True)
                  (lora_dropout): ModuleDict(
                    (default): Identity()
                  )
                  (lora_A): ModuleDict(
                    (default): Linear(in_features=3584, out_features=32, bias=False)
                  )
                  (lora_B): ModuleDict(
                    (default): Linear(in_features=32, out_features=512, bias=False)
                  )
                  (lora_embedding_A): ParameterDict()
                  (lora_embedding_B): ParameterDict()
                  (lora_magnitude_vector): ModuleDict()
                )
                (v_proj): lora.Linear(
                  (base_layer): Linear(in_features=3584, out_features=512, bias=True)
                  (lora_dropout): ModuleDict(
                    (default): Identity()
                  )
                  (lora_A): ModuleDict(
                    (default): Linear(in_features=3584, out_features=32, bias=False)
                  )
                  (lora_B): ModuleDict(
                    (default): Linear(in_features=32, out_features=512, bias=False)
                  )
                  (lora_embedding_A): ParameterDict()
                  (lora_embedding_B): ParameterDict()
                  (lora_magnitude_vector): ModuleDict()
                )
                (o_proj): lora.Linear(
                  (base_layer): Linear(in_features=3584, out_features=3584, bias=False)
                  (lora_dropout): ModuleDict(
                    (default): Identity()
                  )
                  (lora_A): ModuleDict(
                    (default): Linear(in_features=3584, out_features=32, bias=False)
                  )
                  (lora_B): ModuleDict(
                    (default): Linear(in_features=32, out_features=3584, bias=False)
                  )
                  (lora_embedding_A): ParameterDict()
                  (lora_embedding_B): ParameterDict()
                  (lora_magnitude_vector): ModuleDict()
                )
              )
              (mlp): Qwen2MLP(
                (gate_proj): lora.Linear(
                  (base_layer): Linear(in_features=3584, out_features=18944, bias=False)
                  (lora_dropout): ModuleDict(
                    (default): Identity()
                  )
                  (lora_A): ModuleDict(
                    (default): Linear(in_features=3584, out_features=32, bias=False)
                  )
                  (lora_B): ModuleDict(
                    (default): Linear(in_features=32, out_features=18944, bias=False)
                  )
                  (lora_embedding_A): ParameterDict()
                  (lora_embedding_B): ParameterDict()
                  (lora_magnitude_vector): ModuleDict()
                )
                (up_proj): lora.Linear(
                  (base_layer): Linear(in_features=3584, out_features=18944, bias=False)
                  (lora_dropout): ModuleDict(
                    (default): Identity()
                  )
                  (lora_A): ModuleDict(
                    (default): Linear(in_features=3584, out_features=32, bias=False)
                  )
                  (lora_B): ModuleDict(
                    (default): Linear(in_features=32, out_features=18944, bias=False)
                  )
                  (lora_embedding_A): ParameterDict()
                  (lora_embedding_B): ParameterDict()
                  (lora_magnitude_vector): ModuleDict()
                )
                (down_proj): lora.Linear(
                  (base_layer): Linear(in_features=18944, out_features=3584, bias=False)
                  (lora_dropout): ModuleDict(
                    (default): Identity()
                  )
                  (lora_A): ModuleDict(
                    (default): Linear(in_features=18944, out_features=32, bias=False)
                  )
                  (lora_B): ModuleDict(
                    (default): Linear(in_features=32, out_features=3584, bias=False)
                  )
                  (lora_embedding_A): ParameterDict()
                  (lora_embedding_B): ParameterDict()
                  (lora_magnitude_vector): ModuleDict()
                )
                (act_fn): SiLU()
              )
              (input_layernorm): Qwen2RMSNorm((3584,), eps=1e-06)
              (post_attention_layernorm): Qwen2RMSNorm((3584,), eps=1e-06)
            )
          )
          (norm): Qwen2RMSNorm((3584,), eps=1e-06)
          (rotary_emb): Qwen2RotaryEmbedding()
        )
        (lm_head): Linear(in_features=3584, out_features=151674, bias=False)
      )
      (mlp1): Sequential(
        (0): LayerNorm((4096,), eps=1e-05, elementwise_affine=True)
        (1): Linear(in_features=4096, out_features=3584, bias=True)
        (2): GELU(approximate='none')
        (3): Linear(in_features=3584, out_features=3584, bias=True)
      )
    )
  )
)
[INFO:swift] model_parameter_info: PeftModelForCausalLM: 8025.1141M Params (80.7404M Trainable [1.0061%]), 0.0001M Buffers.
/mnt/beegfs/xr/lm_initial_step/envs/swift_env/lib/python3.10/site-packages/swift/trainers/mixin.py:94: FutureWarning: `tokenizer` is deprecated and will be removed in version 5.0.0 for `Seq2SeqTrainer.__init__`. Use `processing_class` instead.
…
={}, megatron_config=None, megatron_core='megatron.core', trainable_token_indices=None, loftq_config={}, eva_config=None, corda_config=None, use_dora=False, use_qalora=False, qalora_group_size=16, layer_replication=None, runtime_config=LoraRuntimeConfig(ephemeral_gpu_offload=False), lora_bias=False, lora_dtype=None, lorap_lr_ratio=None, lorap_emb_lr=1e-06)
[INFO:swift] model: PeftModelForCausalLM(
  (base_model): LoraModel(
    (model): MultiModalityCausalLM(
      (vision_model): CLIPVisionTower(
        (vision_tower): VisionTransformer(
          (patch_embed): PatchEmbed(
            (proj): Conv2d(3, 1024, kernel_size=(16, 16), stride=(16, 16))
            (norm): Identity()
          )
          (pos_drop): Dropout(p=0.0, inplace=False)
          (patch_drop): Identity()
          (norm_pre): Identity()
          (blocks): Sequential(
            (0): Block(
              (norm1): LayerNorm((1024,), eps=1e-06, elementwise_affine=True)
              (attn): Attention(
                (qkv): Linear(in_features=1024, out_features=3072, bias=True)
                (q_norm): Identity()
                (k_norm): Identity()
                (attn_drop): Dropout(p=0.0, inplace=False)
                (proj): Linear(in_features=1024, out_features=1024, bias=True)
                (proj_drop): Identity()
              )
              (ls1): Identity()
              (drop_path1): Identity()
              (norm2): LayerNorm((1024,), eps=1e-06, elementwise_affine=True)
              (mlp): Mlp(
                (fc1): Linear(in_features=1024, out_features=4096, bias=True)
                (act): GELU(approximate='none')
                (drop1): Dropout(p=0.0, inplace=False)
                (norm): Identity()
                (fc2): Linear(in_features=4096, out_features=1024, bias=True)
                (drop2): Dropout(p=0.0, inplace=False)
              )
              (ls2): Identity()
              (drop_path2): Identity()
            )
            (1): Block(
              (norm1): LayerNorm((1024,), eps=1e-06, elementwise_affine=True)
              (attn): Attention(
                (qkv): Linear(in_features=1024, out_features=3072, bias=True)
                (q_norm): Identity()
                (k_norm): Identity()
                (attn_drop): Dropout(p=0.0, inplace=False)
                (proj): Linear(in_features=1024, out_features=1024, bias=True)
                (proj_drop): Identity()
              )
              (ls1): Identity()
              (drop_path1): Identity()
              (norm2): LayerNorm((1024,), eps=1e-06, elementwise_affine=True)
              (mlp): Mlp(
                (fc1): Linear(in_features=1024, out_features=4096, bias=True)
                (act): GELU(approximate='none')
                (drop1): Dropout(p=0.0, inplace=False)
                (norm): Identity()
                (fc2): Linear(in_features=4096, out_features=1024, bias=True)
                (drop2): Dropout(p=0.0, inplace=False)
              )
              (ls2): Identity()
              (drop_path2): Identity()
            )
            (2): Block(
              (norm1): LayerNorm((1024,), eps=1e-06, elementwise_affine=True)
              (attn): Attention(
                (qkv): Linear(in_features=1024, out_features=3072, bias=True)
                (q_norm): Identity()
                (k_norm): Identity()
                (attn_drop): Dropout(p=0.0, inplace=False)
                (proj): Linear(in_features=1024, out_features=1024, bias=True)
                (proj_drop): Identity()
              )
              (ls1): Identity()
              (drop_path1): Identity()
              (norm2): LayerNorm((1024,), eps=1e-06, elementwise_affine=True)
              (mlp): Mlp(
                (fc1): Linear(in_features=1024, out_features=4096, bias=True)
                (act): GELU(approximate='none')
                (drop1): Dropout(p=0.0, inplace=False)
                (norm): Identity()
                (fc2): Linear(in_features=4096, out_features=1024, bias=True)
                (drop2): Dropout(p=0.0, inplace=False)
              )
              (ls2): Identity()
              (drop_path2): Identity()
            )
            (3): Block(
              (norm1): LayerNorm((1024,), eps=1e-06, elementwise_affine=True)
              (attn): Attention(
                (qkv): Linear(in_features=1024, out_features=3072, bias=True)
                (q_norm): Identity()
                (k_norm): Identity()
                (attn_drop): Dropout(p=0.0, inplace=False)
                (proj): Linear(in_features=1024, out_features=1024, bias=True)
                (proj_drop): Identity()
              )
              (ls1): Identity()
              (drop_path1): Identity()
              (norm2): LayerNorm((1024,), eps=1e-06, elementwise_affine=True)
              (mlp): Mlp(
                (fc1): Linear(in_features=1024, out_features=4096, bias=True)
                (act): GELU(approximate='none')
                (drop1): Dropout(p=0.0, inplace=False)
                (norm): Identity()
                (fc2): Linear(in_features=4096, out_features=1024, bias=True)
                (drop2): Dropout(p=0.0, inplace=False)
              )
              (ls2): Identity()
              (drop_path2): Identity()
            )
            (4): Block(
              (norm1): LayerNorm((1024,), eps=1e-06, elementwise_affine=True)
              (attn): Attention(
                (qkv): Linear(in_features=1024, out_features=3072, bias=True)
                (q_norm): Identity()
                (k_norm): Identity()
                (attn_drop): Dropout(p=0.0, inplace=False)
                (proj): Linear(in_features=1024, out_features=1024, bias=True)
                (proj_drop): Identity()
              )
              (ls1): Identity()
              (drop_path1): Identity()
              (norm2): LayerNorm((1024,), eps=1e-06, elementwise_affine=True)
              (mlp): Mlp(
                (fc1): Linear(in_features=1024, out_features=4096, bias=True)
                (act): GELU(approximate='none')
                (drop1): Dropout(p=0.0, inplace=False)
                (norm): Identity()
                (fc2): Linear(in_features=4096, out_features=1024, bias=True)
                (drop2): Dropout(p=0.0, inplace=False)
              )
              (ls2): Identity()
              (drop_path2): Identity()
            )
            (5): Block(
              (norm1): LayerNorm((1024,), eps=1e-06, elementwise_affine=True)
              (attn): Attention(
                (qkv): Linear(in_features=1024, out_features=3072, bias=True)
                (q_norm): Identity()
                (k_norm): Identity()
                (attn_drop): Dropout(p=0.0, inplace=False)
                (proj): Linear(in_features=1024, out_features=1024, bias=True)
                (proj_drop): Identity()
              )
              (ls1): Identity()
              (drop_path1): Identity()
              (norm2): LayerNorm((1024,), eps=1e-06, elementwise_affine=True)
              (mlp): Mlp(
                (fc1): Linear(in_features=1024, out_features=4096, bias=True)
                (act): GELU(approximate='none')
                (drop1): Dropout(p=0.0, inplace=False)
                (norm): Identity()
                (fc2): Linear(in_features=4096, out_features=1024, bias=True)
                (drop2): Dropout(p=0.0, inplace=False)
              )
              (ls2): Identity()
              (drop_path2): Identity()
            )
            (6): Block(
              (norm1): LayerNorm((1024,), eps=1e-06, elementwise_affine=True)
              (attn): Attention(
                (qkv): Linear(in_features=1024, out_features=3072, bias=True)
                (q_norm): Identity()
                (k_norm): Identity()
                (attn_drop): Dropout(p=0.0, inplace=False)
                (proj): Linear(in_features=1024, out_features=1024, bias=True)
                (proj_drop): Identity()
              )
              (ls1): Identity()
              (drop_path1): Identity()
              (norm2): LayerNorm((1024,), eps=1e-06, elementwise_affine=True)
              (mlp): Mlp(
                (fc1): Linear(in_features=1024, out_features=4096, bias=True)
                (act): GELU(approximate='none')
                (drop1): Dropout(p=0.0, inplace=False)
                (norm): Identity()
                (fc2): Linear(in_features=4096, out_features=1024, bias=True)
                (drop2): Dropout(p=0.0, inplace=False)
              )
              (ls2): Identity()
              (drop_path2): Identity()
            )
            (7): Block(
              (norm1): LayerNorm((1024,), eps=1e-06, elementwise_affine=True)
              (attn): Attention(
                (qkv): Linear(in_features=1024, out_features=3072, bias=True)
                (q_norm): Identity()
                (k_norm): Identity()
                (attn_drop): Dropout(p=0.0, inplace=False)
                (proj): Linear(in_features=1024, out_features=1024, bias=True)
                (proj_drop): Identity()
              )
              (ls1): Identity()
              (drop_path1): Identity()
              (norm2): LayerNorm((1024,), eps=1e-06, elementwise_affine=True)
              (mlp): Mlp(
                (fc1): Linear(in_features=1024, out_features=4096, bias=True)
                (act): GELU(approximate='none')
                (drop1): Dropout(p=0.0, inplace=False)
                (norm): Identity()
                (fc2): Linear(in_features=4096, out_features=1024, bias=True)
                (drop2): Dropout(p=0.0, inplace=False)
              )
              (ls2): Identity()
              (drop_path2): Identity()
            )
            (8): Block(
              (norm1): LayerNorm((1024,), eps=1e-06, elementwise_affine=True)
              (attn): Attention(
                (qkv): Linear(in_features=1024, out_features=3072, bias=True)
                (q_norm): Identity()
                (k_norm): Identity()
                (attn_drop): Dropout(p=0.0, inplace=False)
                (proj): Linear(in_features=1024, out_features=1024, bias=True)
                (proj_drop): Identity()
              )
              (ls1): Identity()
              (drop_path1): Identity()
              (norm2): LayerNorm((1024,), eps=1e-06, elementwise_affine=True)
              (mlp): Mlp(
                (fc1): Linear(in_features=1024, out_features=4096, bias=True)
                (act): GELU(approximate='none')
                (drop1): Dropout(p=0.0, inplace=False)
                (norm): Identity()
                (fc2): Linear(in_features=4096, out_features=1024, bias=True)
                (drop2): Dropout(p=0.0, inplace=False)
              )
              (ls2): Identity()
              (drop_path2): Identity()
            )
            (9): Block(
              (norm1): LayerNorm((1024,), eps=1e-06, elementwise_affine=True)
              (attn): Attention(
                (qkv): Linear(in_features=1024, out_features=3072, bias=True)
                (q_norm): Identity()
                (k_norm): Identity()
                (attn_drop): Dropout(p=0.0, inplace=False)
                (proj): Linear(in_features=1024, out_features=1024, bias=True)
                (proj_drop): Identity()
              )
              (ls1): Identity()
              (drop_path1): Identity()
              (norm2): LayerNorm((1024,), eps=1e-06, elementwise_affine=True)
              (mlp): Mlp(
                (fc1): Linear(in_features=1024, out_features=4096, bias=True)
                (act): GELU(approximate='none')
                (drop1): Dropout(p=0.0, inplace=False)
                (norm): Identity()
                (fc2): Linear(in_features=4096, out_features=1024, bias=True)
                (drop2): Dropout(p=0.0, inplace=False)
              )
              (ls2): Identity()
              (drop_path2): Identity()
            )
            (10): Block(
              (norm1): LayerNorm((1024,), eps=1e-06, elementwise_affine=True)
              (attn): Attention(
                (qkv): Linear(in_features=1024, out_features=3072, bias=True)
                (q_norm): Identity()
                (k_norm): Identity()
                (attn_drop): Dropout(p=0.0, inplace=False)
                (proj): Linear(in_features=1024, out_features=1024, bias=True)
                (proj_drop): Identity()
              )
              (ls1): Identity()
              (drop_path1): Identity()
              (norm2): LayerNorm((1024,), eps=1e-06, elementwise_affine=True)
              (mlp): Mlp(
                (fc1): Linear(in_features=1024, out_features=4096, bias=True)
                (act): GELU(approximate='none')
                (drop1): Dropout(p=0.0, inplace=False)
                (norm): Identity()
                (fc2): Linear(in_features=4096, out_features=1024, bias=True)
                (drop2): Dropout(p=0.0, inplace=False)
              )
              (ls2): Identity()
              (drop_path2): Identity()
            )
            (11): Block(
              (norm1): LayerNorm((1024,), eps=1e-06, elementwise_affine=True)
              (attn): Attention(
                (qkv): Linear(in_features=1024, out_features=3072, bias=True)
                (q_norm): Identity()
                (k_norm): Identity()
                (attn_drop): Dropout(p=0.0, inplace=False)
                (proj): Linear(in_features=1024, out_features=1024, bias=True)
                (proj_drop): Identity()
              )
              (ls1): Identity()
              (drop_path1): Identity()
              (norm2): LayerNorm((1024,), eps=1e-06, elementwise_affine=True)
              (mlp): Mlp(
                (fc1): Linear(in_features=1024, out_features=4096, bias=True)
                (act): GELU(approximate='none')
                (drop1): Dropout(p=0.0, inplace=False)
                (norm): Identity()
                (fc2): Linear(in_features=4096, out_features=1024, bias=True)
                (drop2): Dropout(p=0.0, inplace=False)
              )
              (ls2): Identity()
              (drop_path2): Identity()
            )
            (12): Block(
              (norm1): LayerNorm((1024,), eps=1e-06, elementwise_affine=True)
              (attn): Attention(
                (qkv): Linear(in_features=1024, out_features=3072, bias=True)
                (q_norm): Identity()
                (k_norm): Identity()
                (attn_drop): Dropout(p=0.0, inplace=False)
                (proj): Linear(in_features=1024, out_features=1024, bias=True)
                (proj_drop): Identity()
              )
              (ls1): Identity()
              (drop_path1): Identity()
              (norm2): LayerNorm((1024,), eps=1e-06, elementwise_affine=True)
              (mlp): Mlp(
                (fc1): Linear(in_features=1024, out_features=4096, bias=True)
                (act): GELU(approximate='none')
                (drop1): Dropout(p=0.0, inplace=False)
                (norm): Identity()
                (fc2): Linear(in_features=4096, out_features=1024, bias=True)
                (drop2): Dropout(p=0.0, inplace=False)
              )
              (ls2): Identity()
              (drop_path2): Identity()
            )
            (13): Block(
              (norm1): LayerNorm((1024,), eps=1e-06, elementwise_affine=True)
              (attn): Attention(
                (qkv): Linear(in_features=1024, out_features=3072, bias=True)
                (q_norm): Identity()
                (k_norm): Identity()
                (attn_drop): Dropout(p=0.0, inplace=False)
                (proj): Linear(in_features=1024, out_features=1024, bias=True)
                (proj_drop): Identity()
              )
              (ls1): Identity()
              (drop_path1): Identity()
              (norm2): LayerNorm((1024,), eps=1e-06, elementwise_affine=True)
              (mlp): Mlp(
                (fc1): Linear(in_features=1024, out_features=4096, bias=True)
                (act): GELU(approximate='none')
                (drop1): Dropout(p=0.0, inplace=False)
                (norm): Identity()
                (fc2): Linear(in_features=4096, out_features=1024, bias=True)
                (drop2): Dropout(p=0.0, inplace=False)
              )
              (ls2): Identity()
              (drop_path2): Identity()
            )
            (14): Block(
              (norm1): LayerNorm((1024,), eps=1e-06, elementwise_affine=True)
              (attn): Attention(
                (qkv): Linear(in_features=1024, out_features=3072, bias=True)
                (q_norm): Identity()
                (k_norm): Identity()
                (attn_drop): Dropout(p=0.0, inplace=False)
                (proj): Linear(in_features=1024, out_features=1024, bias=True)
                (proj_drop): Identity()
              )
              (ls1): Identity()
              (drop_path1): Identity()
              (norm2): LayerNorm((1024,), eps=1e-06, elementwise_affine=True)
              (mlp): Mlp(
                (fc1): Linear(in_features=1024, out_features=4096, bias=True)
                (act): GELU(approximate='none')
                (drop1): Dropout(p=0.0, inplace=False)
                (norm): Identity()
                (fc2): Linear(in_features=4096, out_features=1024, bias=True)
                (drop2): Dropout(p=0.0, inplace=False)
              )
              (ls2): Identity()
              (drop_path2): Identity()
            )
            (15): Block(
              (norm1): LayerNorm((1024,), eps=1e-06, elementwise_affine=True)
              (attn): Attention(
                (qkv): Linear(in_features=1024, out_features=3072, bias=True)
                (q_norm): Identity()
                (k_norm): Identity()
                (attn_drop): Dropout(p=0.0, inplace=False)
                (proj): Linear(in_features=1024, out_features=1024, bias=True)
                (proj_drop): Identity()
              )
              (ls1): Identity()
              (drop_path1): Identity()
              (norm2): LayerNorm((1024,), eps=1e-06, elementwise_affine=True)
              (mlp): Mlp(
                (fc1): Linear(in_features=1024, out_features=4096, bias=True)
                (act): GELU(approximate='none')
                (drop1): Dropout(p=0.0, inplace=False)
                (norm): Identity()
                (fc2): Linear(in_features=4096, out_features=1024, bias=True)
                (drop2): Dropout(p=0.0, inplace=False)
              )
              (ls2): Identity()
              (drop_path2): Identity()
            )
            (16): Block(
              (norm1): LayerNorm((1024,), eps=1e-06, elementwise_affine=True)
              (attn): Attention(
                (qkv): Linear(in_features=1024, out_features=3072, bias=True)
                (q_norm): Identity()
                (k_norm): Identity()
                (attn_drop): Dropout(p=0.0, inplace=False)
                (proj): Linear(in_features=1024, out_features=1024, bias=True)
                (proj_drop): Identity()
              )
              (ls1): Identity()
              (drop_path1): Identity()
              (norm2): LayerNorm((1024,), eps=1e-06, elementwise_affine=True)
              (mlp): Mlp(
                (fc1): Linear(in_features=1024, out_features=4096, bias=True)
                (act): GELU(approximate='none')
                (drop1): Dropout(p=0.0, inplace=False)
                (norm): Identity()
                (fc2): Linear(in_features=4096, out_features=1024, bias=True)
                (drop2): Dropout(p=0.0, inplace=False)
              )
              (ls2): Identity()
              (drop_path2): Identity()
            )
            (17): Block(
              (norm1): LayerNorm((1024,), eps=1e-06, elementwise_affine=True)
              (attn): Attention(
                (qkv): Linear(in_features=1024, out_features=3072, bias=True)
                (q_norm): Identity()
                (k_norm): Identity()
                (attn_drop): Dropout(p=0.0, inplace=False)
                (proj): Linear(in_features=1024, out_features=1024, bias=True)
                (proj_drop): Identity()
              )
              (ls1): Identity()
              (drop_path1): Identity()
              (norm2): LayerNorm((1024,), eps=1e-06, elementwise_affine=True)
              (mlp): Mlp(
                (fc1): Linear(in_features=1024, out_features=4096, bias=True)
                (act): GELU(approximate='none')
                (drop1): Dropout(p=0.0, inplace=False)
                (norm): Identity()
                (fc2): Linear(in_features=4096, out_features=1024, bias=True)
                (drop2): Dropout(p=0.0, inplace=False)
              )
              (ls2): Identity()
              (drop_path2): Identity()
            )
            (18): Block(
              (norm1): LayerNorm((1024,), eps=1e-06, elementwise_affine=True)
              (attn): Attention(
                (qkv): Linear(in_features=1024, out_features=3072, bias=True)
                (q_norm): Identity()
                (k_norm): Identity()
                (attn_drop): Dropout(p=0.0, inplace=False)
                (proj): Linear(in_features=1024, out_features=1024, bias=True)
                (proj_drop): Identity()
              )
              (ls1): Identity()
              (drop_path1): Identity()
              (norm2): LayerNorm((1024,), eps=1e-06, elementwise_affine=True)
              (mlp): Mlp(
                (fc1): Linear(in_features=1024, out_features=4096, bias=True)
                (act): GELU(approximate='none')
                (drop1): Dropout(p=0.0, inplace=False)
                (norm): Identity()
                (fc2): Linear(in_features=4096, out_features=1024, bias=True)
                (drop2): Dropout(p=0.0, inplace=False)
              )
              (ls2): Identity()
              (drop_path2): Identity()
            )
            (19): Block(
              (norm1): LayerNorm((1024,), eps=1e-06, elementwise_affine=True)
              (attn): Attention(
                (qkv): Linear(in_features=1024, out_features=3072, bias=True)
                (q_norm): Identity()
                (k_norm): Identity()
                (attn_drop): Dropout(p=0.0, inplace=False)
                (proj): Linear(in_features=1024, out_features=1024, bias=True)
                (proj_drop): Identity()
              )
              (ls1): Identity()
              (drop_path1): Identity()
              (norm2): LayerNorm((1024,), eps=1e-06, elementwise_affine=True)
              (mlp): Mlp(
                (fc1): Linear(in_features=1024, out_features=4096, bias=True)
                (act): GELU(approximate='none')
                (drop1): Dropout(p=0.0, inplace=False)
                (norm): Identity()
                (fc2): Linear(in_features=4096, out_features=1024, bias=True)
                (drop2): Dropout(p=0.0, inplace=False)
              )
              (ls2): Identity()
              (drop_path2): Identity()
            )
            (20): Block(
              (norm1): LayerNorm((1024,), eps=1e-06, elementwise_affine=True)
              (attn): Attention(
                (qkv): Linear(in_features=1024, out_features=3072, bias=True)
                (q_norm): Identity()
                (k_norm): Identity()
                (attn_drop): Dropout(p=0.0, inplace=False)
                (proj): Linear(in_features=1024, out_features=1024, bias=True)
                (proj_drop): Identity()
              )
              (ls1): Identity()
              (drop_path1): Identity()
              (norm2): LayerNorm((1024,), eps=1e-06, elementwise_affine=True)
              (mlp): Mlp(
                (fc1): Linear(in_features=1024, out_features=4096, bias=True)
                (act): GELU(approximate='none')
                (drop1): Dropout(p=0.0, inplace=False)
                (norm): Identity()
                (fc2): Linear(in_features=4096, out_features=1024, bias=True)
                (drop2): Dropout(p=0.0, inplace=False)
              )
              (ls2): Identity()
              (drop_path2): Identity()
            )
            (21): Block(
              (norm1): LayerNorm((1024,), eps=1e-06, elementwise_affine=True)
              (attn): Attention(
                (qkv): Linear(in_features=1024, out_features=3072, bias=True)
                (q_norm): Identity()
                (k_norm): Identity()
                (attn_drop): Dropout(p=0.0, inplace=False)
                (proj): Linear(in_features=1024, out_features=1024, bias=True)
                (proj_drop): Identity()
              )
              (ls1): Identity()
              (drop_path1): Identity()
              (norm2): LayerNorm((1024,), eps=1e-06, elementwise_affine=True)
              (mlp): Mlp(
                (fc1): Linear(in_features=1024, out_features=4096, bias=True)
                (act): GELU(approximate='none')
                (drop1): Dropout(p=0.0, inplace=False)
                (norm): Identity()
                (fc2): Linear(in_features=4096, out_features=1024, bias=True)
                (drop2): Dropout(p=0.0, inplace=False)
              )
              (ls2): Identity()
              (drop_path2): Identity()
            )
            (22): Block(
              (norm1): LayerNorm((1024,), eps=1e-06, elementwise_affine=True)
              (attn): Attention(
                (qkv): Linear(in_features=1024, out_features=3072, bias=True)
                (q_norm): Identity()
                (k_norm): Identity()
                (attn_drop): Dropout(p=0.0, inplace=False)
                (proj): Linear(in_features=1024, out_features=1024, bias=True)
                (proj_drop): Identity()
              )
              (ls1): Identity()
              (drop_path1): Identity()
              (norm2): LayerNorm((1024,), eps=1e-06, elementwise_affine=True)
              (mlp): Mlp(
                (fc1): Linear(in_features=1024, out_features=4096, bias=True)
                (act): GELU(approximate='none')
                (drop1): Dropout(p=0.0, inplace=False)
                (norm): Identity()
                (fc2): Linear(in_features=4096, out_features=1024, bias=True)
                (drop2): Dropout(p=0.0, inplace=False)
              )
              (ls2): Identity()
              (drop_path2): Identity()
            )
            (23): Block(
              (norm1): LayerNorm((1024,), eps=1e-06, elementwise_affine=True)
              (attn): Attention(
                (qkv): Linear(in_features=1024, out_features=3072, bias=True)
                (q_norm): Identity()
                (k_norm): Identity()
                (attn_drop): Dropout(p=0.0, inplace=False)
                (proj): Linear(in_features=1024, out_features=1024, bias=True)
                (proj_drop): Identity()
              )
              (ls1): Identity()
              (drop_path1): Identity()
              (norm2): LayerNorm((1024,), eps=1e-06, elementwise_affine=True)
              (mlp): Mlp(
                (fc1): Linear(in_features=1024, out_features=4096, bias=True)
                (act): GELU(approximate='none')
                (drop1): Dropout(p=0.0, inplace=False)
                (norm): Identity()
                (fc2): Linear(in_features=4096, out_features=1024, bias=True)
                (drop2): Dropout(p=0.0, inplace=False)
              )
              (ls2): Identity()
              (drop_path2): Identity()
            )
          )
          (norm): LayerNorm((1024,), eps=1e-06, elementwise_affine=True)
          (attn_pool): AttentionPoolLatent(
            (q): Linear(in_features=1024, out_features=1024, bias=True)
            (kv): Linear(in_features=1024, out_features=2048, bias=True)
            (q_norm): Identity()
            (k_norm): Identity()
            (proj): Linear(in_features=1024, out_features=1024, bias=True)
            (proj_drop): Dropout(p=0.0, inplace=False)
            (norm): LayerNorm((1024,), eps=1e-06, elementwise_affine=True)
            (mlp): Mlp(
              (fc1): Linear(in_features=1024, out_features=4096, bias=True)
              (act): GELU(approximate='none')
              (drop1): Dropout(p=0.0, inplace=False)
              (norm): Identity()
              (fc2): Linear(in_features=4096, out_features=1024, bias=True)
              (drop2): Dropout(p=0.0, inplace=False)
            )
          )
          (fc_norm): Identity()
          (head_drop): Dropout(p=0.0, inplace=False)
          (head): Identity()
        )
      )
      (aligner): MlpProjector(
        (layers): Sequential(
          (0): Linear(in_features=1024, out_features=4096, bias=True)
          (1): GELU(approximate='none')
          (2): Linear(in_features=4096, out_features=4096, bias=True)
        )
      )
      (gen_vision_model): VQModel(
        (encoder): Encoder(
          (conv_in): Conv2d(3, 128, kernel_size=(3, 3), stride=(1, 1), padding=(1, 1))
          (conv_blocks): ModuleList(
            (0-1): 2 x Module(
              (res): ModuleList(
                (0-1): 2 x ResnetBlock(
                  (norm1): GroupNorm(32, 128, eps=1e-06, affine=True)
                  (conv1): Conv2d(128, 128, kernel_size=(3, 3), stride=(1, 1), padding=(1, 1))
                  (norm2): GroupNorm(32, 128, eps=1e-06, affine=True)
                  (dropout): Dropout(p=0.0, inplace=False)
                  (conv2): Conv2d(128, 128, kernel_size=(3, 3), stride=(1, 1), padding=(1, 1))
                )
              )
              (attn): ModuleList()
              (downsample): Downsample(
                (conv): Conv2d(128, 128, kernel_size=(3, 3), stride=(2, 2))
              )
            )
            (2): Module(
              (res): ModuleList(
                (0): ResnetBlock(
                  (norm1): GroupNorm(32, 128, eps=1e-06, affine=True)
                  (conv1): Conv2d(128, 256, kernel_size=(3, 3), stride=(1, 1), padding=(1, 1))
                  (norm2): GroupNorm(32, 256, eps=1e-06, affine=True)
                  (dropout): Dropout(p=0.0, inplace=False)
                  (conv2): Conv2d(256, 256, kernel_size=(3, 3), stride=(1, 1), padding=(1, 1))
                  (nin_shortcut): Conv2d(128, 256, kernel_size=(1, 1), stride=(1, 1))
                )
                (1): ResnetBlock(
                  (norm1): GroupNorm(32, 256, eps=1e-06, affine=True)
                  (conv1): Conv2d(256, 256, kernel_size=(3, 3), stride=(1, 1), padding=(1, 1))
                  (norm2): GroupNorm(32, 256, eps=1e-06, affine=True)
                  (dropout): Dropout(p=0.0, inplace=False)
                  (conv2): Conv2d(256, 256, kernel_size=(3, 3), stride=(1, 1), padding=(1, 1))
                )
              )
              (attn): ModuleList()
              (downsample): Downsample(
                (conv): Conv2d(256, 256, kernel_size=(3, 3), stride=(2, 2))
              )
            )
            (3): Module(
              (res): ModuleList(
                (0-1): 2 x ResnetBlock(
                  (norm1): GroupNorm(32, 256, eps=1e-06, affine=True)
                  (conv1): Conv2d(256, 256, kernel_size=(3, 3), stride=(1, 1), padding=(1, 1))
                  (norm2): GroupNorm(32, 256, eps=1e-06, affine=True)
                  (dropout): Dropout(p=0.0, inplace=False)
                  (conv2): Conv2d(256, 256, kernel_size=(3, 3), stride=(1, 1), padding=(1, 1))
                )
              )
              (attn): ModuleList()
              (downsample): Downsample(
                (conv): Conv2d(256, 256, kernel_size=(3, 3), stride=(2, 2))
              )
            )
            (4): Module(
              (res): ModuleList(
                (0): ResnetBlock(
                  (norm1): GroupNorm(32, 256, eps=1e-06, affine=True)
                  (conv1): Conv2d(256, 512, kernel_size=(3, 3), stride=(1, 1), padding=(1, 1))
                  (norm2): GroupNorm(32, 512, eps=1e-06, affine=True)
                  (dropout): Dropout(p=0.0, inplace=False)
                  (conv2): Conv2d(512, 512, kernel_size=(3, 3), stride=(1, 1), padding=(1, 1))
                  (nin_shortcut): Conv2d(256, 512, kernel_size=(1, 1), stride=(1, 1))
                )
                (1): ResnetBlock(
                  (norm1): GroupNorm(32, 512, eps=1e-06, affine=True)
                  (conv1): Conv2d(512, 512, kernel_size=(3, 3), stride=(1, 1), padding=(1, 1))
                  (norm2): GroupNorm(32, 512, eps=1e-06, affine=True)
                  (dropout): Dropout(p=0.0, inplace=False)
                  (conv2): Conv2d(512, 512, kernel_size=(3, 3), stride=(1, 1), padding=(1, 1))
                )
              )
              (attn): ModuleList(
                (0-1): 2 x AttnBlock(
                  (norm): GroupNorm(32, 512, eps=1e-06, affine=True)
                  (q): Conv2d(512, 512, kernel_size=(1, 1), stride=(1, 1))
                  (k): Conv2d(512, 512, kernel_size=(1, 1), stride=(1, 1))
                  (v): Conv2d(512, 512, kernel_size=(1, 1), stride=(1, 1))
                  (proj_out): Conv2d(512, 512, kernel_size=(1, 1), stride=(1, 1))
                )
              )
            )
          )
          (mid): ModuleList(
            (0): ResnetBlock(
              (norm1): GroupNorm(32, 512, eps=1e-06, affine=True)
              (conv1): Conv2d(512, 512, kernel_size=(3, 3), stride=(1, 1), padding=(1, 1))
              (norm2): GroupNorm(32, 512, eps=1e-06, affine=True)
              (dropout): Dropout(p=0.0, inplace=False)
              (conv2): Conv2d(512, 512, kernel_size=(3, 3), stride=(1, 1), padding=(1, 1))
            )
            (1): AttnBlock(
              (norm): GroupNorm(32, 512, eps=1e-06, affine=True)
              (q): Conv2d(512, 512, kernel_size=(1, 1), stride=(1, 1))
              (k): Conv2d(512, 512, kernel_size=(1, 1), stride=(1, 1))
              (v): Conv2d(512, 512, kernel_size=(1, 1), stride=(1, 1))
              (proj_out): Conv2d(512, 512, kernel_size=(1, 1), stride=(1, 1))
            )
            (2): ResnetBlock(
              (norm1): GroupNorm(32, 512, eps=1e-06, affine=True)
              (conv1): Conv2d(512, 512, kernel_size=(3, 3), stride=(1, 1), padding=(1, 1))
              (norm2): GroupNorm(32, 512, eps=1e-06, affine=True)
              (dropout): Dropout(p=0.0, inplace=False)
              (conv2): Conv2d(512, 512, kernel_size=(3, 3), stride=(1, 1), padding=(1, 1))
            )
          )
          (norm_out): GroupNorm(32, 512, eps=1e-06, affine=True)
          (conv_out): Conv2d(512, 256, kernel_size=(3, 3), stride=(1, 1), padding=(1, 1))
        )
        (decoder): Decoder(
          (conv_in): Conv2d(256, 512, kernel_size=(3, 3), stride=(1, 1), padding=(1, 1))
          (mid): ModuleList(
            (0): ResnetBlock(
              (norm1): GroupNorm(32, 512, eps=1e-06, affine=True)
              (conv1): Conv2d(512, 512, kernel_size=(3, 3), stride=(1, 1), padding=(1, 1))
              (norm2): GroupNorm(32, 512, eps=1e-06, affine=True)
              (dropout): Dropout(p=0.0, inplace=False)
              (conv2): Conv2d(512, 512, kernel_size=(3, 3), stride=(1, 1), padding=(1, 1))
            )
            (1): AttnBlock(
              (norm): GroupNorm(32, 512, eps=1e-06, affine=True)
              (q): Conv2d(512, 512, kernel_size=(1, 1), stride=(1, 1))
              (k): Conv2d(512, 512, kernel_size=(1, 1), stride=(1, 1))
              (v): Conv2d(512, 512, kernel_size=(1, 1), stride=(1, 1))
              (proj_out): Conv2d(512, 512, kernel_size=(1, 1), stride=(1, 1))
            )
            (2): ResnetBlock(
              (norm1): GroupNorm(32, 512, eps=1e-06, affine=True)
              (conv1): Conv2d(512, 512, kernel_size=(3, 3), stride=(1, 1), padding=(1, 1))
              (norm2): GroupNorm(32, 512, eps=1e-06, affine=True)
              (dropout): Dropout(p=0.0, inplace=False)
              (conv2): Conv2d(512, 512, kernel_size=(3, 3), stride=(1, 1), padding=(1, 1))
            )
          )
          (conv_blocks): ModuleList(
            (0): Module(
              (res): ModuleList(
                (0-2): 3 x ResnetBlock(
                  (norm1): GroupNorm(32, 512, eps=1e-06, affine=True)
                  (conv1): Conv2d(512, 512, kernel_size=(3, 3), stride=(1, 1), padding=(1, 1))
                  (norm2): GroupNorm(32, 512, eps=1e-06, affine=True)
                  (dropout): Dropout(p=0.0, inplace=False)
                  (conv2): Conv2d(512, 512, kernel_size=(3, 3), stride=(1, 1), padding=(1, 1))
                )
              )
              (attn): ModuleList(
                (0-2): 3 x AttnBlock(
                  (norm): GroupNorm(32, 512, eps=1e-06, affine=True)
                  (q): Conv2d(512, 512, kernel_size=(1, 1), stride=(1, 1))
                  (k): Conv2d(512, 512, kernel_size=(1, 1), stride=(1, 1))
                  (v): Conv2d(512, 512, kernel_size=(1, 1), stride=(1, 1))
                  (proj_out): Conv2d(512, 512, kernel_size=(1, 1), stride=(1, 1))
                )
              )
              (upsample): Upsample(
                (conv): Conv2d(512, 512, kernel_size=(3, 3), stride=(1, 1), padding=(1, 1))
              )
            )
            (1): Module(
              (res): ModuleList(
                (0): ResnetBlock(
                  (norm1): GroupNorm(32, 512, eps=1e-06, affine=True)
                  (conv1): Conv2d(512, 256, kernel_size=(3, 3), stride=(1, 1), padding=(1, 1))
                  (norm2): GroupNorm(32, 256, eps=1e-06, affine=True)
                  (dropout): Dropout(p=0.0, inplace=False)
                  (conv2): Conv2d(256, 256, kernel_size=(3, 3), stride=(1, 1), padding=(1, 1))
                  (nin_shortcut): Conv2d(512, 256, kernel_size=(1, 1), stride=(1, 1))
                )
                (1-2): 2 x ResnetBlock(
                  (norm1): GroupNorm(32, 256, eps=1e-06, affine=True)
                  (conv1): Conv2d(256, 256, kernel_size=(3, 3), stride=(1, 1), padding=(1, 1))
                  (norm2): GroupNorm(32, 256, eps=1e-06, affine=True)
                  (dropout): Dropout(p=0.0, inplace=False)
                  (conv2): Conv2d(256, 256, kernel_size=(3, 3), stride=(1, 1), padding=(1, 1))
                )
              )
              (attn): ModuleList()
              (upsample): Upsample(
                (conv): Conv2d(256, 256, kernel_size=(3, 3), stride=(1, 1), padding=(1, 1))
              )
            )
            (2): Module(
              (res): ModuleList(
                (0-2): 3 x ResnetBlock(
                  (norm1): GroupNorm(32, 256, eps=1e-06, affine=True)
                  (conv1): Conv2d(256, 256, kernel_size=(3, 3), stride=(1, 1), padding=(1, 1))
                  (norm2): GroupNorm(32, 256, eps=1e-06, affine=True)
                  (dropout): Dropout(p=0.0, inplace=False)
                  (conv2): Conv2d(256, 256, kernel_size=(3, 3), stride=(1, 1), padding=(1, 1))
                )
              )
              (attn): ModuleList()
              (upsample): Upsample(
                (conv): Conv2d(256, 256, kernel_size=(3, 3), stride=(1, 1), padding=(1, 1))
              )
            )
            (3): Module(
              (res): ModuleList(
                (0): ResnetBlock(
                  (norm1): GroupNorm(32, 256, eps=1e-06, affine=True)
                  (conv1): Conv2d(256, 128, kernel_size=(3, 3), stride=(1, 1), padding=(1, 1))
                  (norm2): GroupNorm(32, 128, eps=1e-06, affine=True)
                  (dropout): Dropout(p=0.0, inplace=False)
                  (conv2): Conv2d(128, 128, kernel_size=(3, 3), stride=(1, 1), padding=(1, 1))
                  (nin_shortcut): Conv2d(256, 128, kernel_size=(1, 1), stride=(1, 1))
                )
                (1-2): 2 x ResnetBlock(
                  (norm1): GroupNorm(32, 128, eps=1e-06, affine=True)
                  (conv1): Conv2d(128, 128, kernel_size=(3, 3), stride=(1, 1), padding=(1, 1))
                  (norm2): GroupNorm(32, 128, eps=1e-06, affine=True)
                  (dropout): Dropout(p=0.0, inplace=False)
                  (conv2): Conv2d(128, 128, kernel_size=(3, 3), stride=(1, 1), padding=(1, 1))
                )
              )
              (attn): ModuleList()
              (upsample): Upsample(
                (conv): Conv2d(128, 128, kernel_size=(3, 3), stride=(1, 1), padding=(1, 1))
              )
            )
            (4): Module(
              (res): ModuleList(
                (0-2): 3 x ResnetBlock(
                  (norm1): GroupNorm(32, 128, eps=1e-06, affine=True)
                  (conv1): Conv2d(128, 128, kernel_size=(3, 3), stride=(1, 1), padding=(1, 1))
                  (norm2): GroupNorm(32, 128, eps=1e-06, affine=True)
                  (dropout): Dropout(p=0.0, inplace=False)
                  (conv2): Conv2d(128, 128, kernel_size=(3, 3), stride=(1, 1), padding=(1, 1))
                )
              )
              (attn): ModuleList()
            )
          )
          (norm_out): GroupNorm(32, 128, eps=1e-06, affine=True)
          (conv_out): Conv2d(128, 3, kernel_size=(3, 3), stride=(1, 1), padding=(1, 1))
        )
        (quantize): VectorQuantizer(
          (embedding): Embedding(16384, 8)
        )
        (quant_conv): Conv2d(256, 8, kernel_size=(1, 1), stride=(1, 1))
        (post_quant_conv): Conv2d(8, 256, kernel_size=(1, 1), stride=(1, 1))
      )
      (gen_aligner): MlpProjector(
        (layers): Sequential(
          (0): Linear(in_features=8, out_features=4096, bias=True)
          (1): GELU(approximate='none')
          (2): Linear(in_features=4096, out_features=4096, bias=True)
        )
      )
      (gen_head): vision_head(
        (output_mlp_projector): Linear(in_features=4096, out_features=4096, bias=True)
        (vision_activation): GELU(approximate='none')
        (vision_head): Linear(in_features=4096, out_features=16384, bias=True)
      )
      (gen_embed): Embedding(16384, 8)
      (language_model): LlamaForCausalLM(
        (model): LlamaModel(
          (embed_tokens): Embedding(102400, 4096)
          (layers): ModuleList(
            (0-29): 30 x LlamaDecoderLayer(
              (self_attn): LlamaAttention(
                (q_proj): lora.Linear(
                  (base_layer): Linear(in_features=4096, out_features=4096, bias=False)
                  (lora_dropout): ModuleDict(
                    (default): Identity()
                  )
                  (lora_A): ModuleDict(
                    (default): Linear(in_features=4096, out_features=32, bias=False)
                  )
                  (lora_B): ModuleDict(
                    (default): Linear(in_features=32, out_features=4096, bias=False)
                  )
                  (lora_embedding_A): ParameterDict()
                  (lora_embedding_B): ParameterDict()
                  (lora_magnitude_vector): ModuleDict()
                )
                (k_proj): lora.Linear(
                  (base_layer): Linear(in_features=4096, out_features=4096, bias=False)
                  (lora_dropout): ModuleDict(
                    (default): Identity()
                  )
                  (lora_A): ModuleDict(
                    (default): Linear(in_features=4096, out_features=32, bias=False)
                  )
                  (lora_B): ModuleDict(
                    (default): Linear(in_features=32, out_features=4096, bias=False)
                  )
                  (lora_embedding_A): ParameterDict()
                  (lora_embedding_B): ParameterDict()
                  (lora_magnitude_vector): ModuleDict()
                )
                (v_proj): lora.Linear(
                  (base_layer): Linear(in_features=4096, out_features=4096, bias=False)
                  (lora_dropout): ModuleDict(
                    (default): Identity()
                  )
                  (lora_A): ModuleDict(
                    (default): Linear(in_features=4096, out_features=32, bias=False)
                  )
                  (lora_B): ModuleDict(
                    (default): Linear(in_features=32, out_features=4096, bias=False)
                  )
                  (lora_embedding_A): ParameterDict()
                  (lora_embedding_B): ParameterDict()
                  (lora_magnitude_vector): ModuleDict()
                )
                (o_proj): lora.Linear(
                  (base_layer): Linear(in_features=4096, out_features=4096, bias=False)
                  (lora_dropout): ModuleDict(
                    (default): Identity()
                  )
                  (lora_A): ModuleDict(
                    (default): Linear(in_features=4096, out_features=32, bias=False)
                  )
                  (lora_B): ModuleDict(
                    (default): Linear(in_features=32, out_features=4096, bias=False)
                  )
                  (lora_embedding_A): ParameterDict()
                  (lora_embedding_B): ParameterDict()
                  (lora_magnitude_vector): ModuleDict()
                )
              )
              (mlp): LlamaMLP(
                (gate_proj): lora.Linear(
                  (base_layer): Linear(in_features=4096, out_features=11008, bias=False)
                  (lora_dropout): ModuleDict(
                    (default): Identity()
                  )
                  (lora_A): ModuleDict(
                    (default): Linear(in_features=4096, out_features=32, bias=False)
                  )
                  (lora_B): ModuleDict(
                    (default): Linear(in_features=32, out_features=11008, bias=False)
                  )
                  (lora_embedding_A): ParameterDict()
                  (lora_embedding_B): ParameterDict()
                  (lora_magnitude_vector): ModuleDict()
                )
                (up_proj): lora.Linear(
                  (base_layer): Linear(in_features=4096, out_features=11008, bias=False)
                  (lora_dropout): ModuleDict(
                    (default): Identity()
                  )
                  (lora_A): ModuleDict(
                    (default): Linear(in_features=4096, out_features=32, bias=False)
                  )
                  (lora_B): ModuleDict(
                    (default): Linear(in_features=32, out_features=11008, bias=False)
                  )
                  (lora_embedding_A): ParameterDict()
                  (lora_embedding_B): ParameterDict()
                  (lora_magnitude_vector): ModuleDict()
                )
                (down_proj): lora.Linear(
                  (base_layer): Linear(in_features=11008, out_features=4096, bias=False)
                  (lora_dropout): ModuleDict(
                    (default): Identity()
                  )
                  (lora_A): ModuleDict(
                    (default): Linear(in_features=11008, out_features=32, bias=False)
                  )
                  (lora_B): ModuleDict(
                    (default): Linear(in_features=32, out_features=4096, bias=False)
                  )
                  (lora_embedding_A): ParameterDict()
                  (lora_embedding_B): ParameterDict()
                  (lora_magnitude_vector): ModuleDict()
                )
                (act_fn): SiLU()
              )
              (input_layernorm): LlamaRMSNorm((4096,), eps=1e-06)
              (post_attention_layernorm): LlamaRMSNorm((4096,), eps=1e-06)
            )
          )
          (norm): LlamaRMSNorm((4096,), eps=1e-06)
          (rotary_emb): LlamaRotaryEmbedding()
        )
        (lm_head): Linear(in_features=4096, out_features=102400, bias=False)
      )
    )
  )
)
[INFO:swift] model_parameter_info: PeftModelForCausalLM: 7495.3253M Params (74.9568M Trainable [1.0000%]), 0.0656M Buffers.
/mnt/beegfs/xr/lm_initial_step/envs/swift_env/lib/python3.10/site-packages/swift/trainers/mixin.py:94: FutureWarning: `tokenizer` is deprecated and will be removed in version 5.0.0 for `Seq2SeqTrainer.__init__`. Use `processing_class` instead.
…
rn=None, rank_pattern={}, alpha_pattern={}, megatron_config=None, megatron_core='megatron.core', trainable_token_indices=None, loftq_config={}, eva_config=None, corda_config=None, use_dora=False, use_qalora=False, qalora_group_size=16, layer_replication=None, runtime_config=LoraRuntimeConfig(ephemeral_gpu_offload=False), lora_bias=False, lora_dtype=None, lorap_lr_ratio=None, lorap_emb_lr=1e-06)
[INFO:swift] model: PeftModelForCausalLM(
  (base_model): LoraModel(
    (model): mPLUGOwl3Model(
      (language_model): HyperQwen2ForCausalLM(
        (model): HyperQwen2Model(
          (embed_tokens): Embedding(151851, 3584)
          (layers): ModuleList(
            (0): HyperQwen2DecoderLayer(
              (self_attn): HyperQwen2SdpaAttention(
                (q_proj): lora.Linear(
                  (base_layer): Linear(in_features=3584, out_features=3584, bias=True)
                  (lora_dropout): ModuleDict(
                    (default): Identity()
                  )
                  (lora_A): ModuleDict(
                    (default): Linear(in_features=3584, out_features=32, bias=False)
                  )
                  (lora_B): ModuleDict(
                    (default): Linear(in_features=32, out_features=3584, bias=False)
                  )
                  (lora_embedding_A): ParameterDict()
                  (lora_embedding_B): ParameterDict()
                  (lora_magnitude_vector): ModuleDict()
                )
                (k_proj): lora.Linear(
                  (base_layer): Linear(in_features=3584, out_features=512, bias=True)
                  (lora_dropout): ModuleDict(
                    (default): Identity()
                  )
                  (lora_A): ModuleDict(
                    (default): Linear(in_features=3584, out_features=32, bias=False)
                  )
                  (lora_B): ModuleDict(
                    (default): Linear(in_features=32, out_features=512, bias=False)
                  )
                  (lora_embedding_A): ParameterDict()
                  (lora_embedding_B): ParameterDict()
                  (lora_magnitude_vector): ModuleDict()
                )
                (v_proj): lora.Linear(
                  (base_layer): Linear(in_features=3584, out_features=512, bias=True)
                  (lora_dropout): ModuleDict(
                    (default): Identity()
                  )
                  (lora_A): ModuleDict(
                    (default): Linear(in_features=3584, out_features=32, bias=False)
                  )
                  (lora_B): ModuleDict(
                    (default): Linear(in_features=32, out_features=512, bias=False)
                  )
                  (lora_embedding_A): ParameterDict()
                  (lora_embedding_B): ParameterDict()
                  (lora_magnitude_vector): ModuleDict()
                )
                (o_proj): lora.Linear(
                  (base_layer): Linear(in_features=3584, out_features=3584, bias=False)
                  (lora_dropout): ModuleDict(
                    (default): Identity()
                  )
                  (lora_A): ModuleDict(
                    (default): Linear(in_features=3584, out_features=32, bias=False)
                  )
                  (lora_B): ModuleDict(
                    (default): Linear(in_features=32, out_features=3584, bias=False)
                  )
                  (lora_embedding_A): ParameterDict()
                  (lora_embedding_B): ParameterDict()
                  (lora_magnitude_vector): ModuleDict()
                )
                (rotary_emb): Qwen2RotaryEmbedding()
                (rotary_emb_core): RotaryEmbedding()
                (v_kv_proj): lora.Linear(
                  (base_layer): Linear(in_features=3584, out_features=1024, bias=True)
                  (lora_dropout): ModuleDict(
                    (default): Identity()
                  )
                  (lora_A): ModuleDict(
                    (default): Linear(in_features=3584, out_features=32, bias=False)
                  )
                  (lora_B): ModuleDict(
                    (default): Linear(in_features=32, out_features=1024, bias=False)
                  )
                  (lora_embedding_A): ParameterDict()
                  (lora_embedding_B): ParameterDict()
                  (lora_magnitude_vector): ModuleDict()
                )
                (gate_proj): Sequential(
                  (0): lora.Linear(
                    (base_layer): Linear(in_features=128, out_features=128, bias=True)
                    (lora_dropout): ModuleDict(
                      (default): Identity()
                    )
                    (lora_A): ModuleDict(
                      (default): Linear(in_features=128, out_features=32, bias=False)
                    )
                    (lora_B): ModuleDict(
                      (default): Linear(in_features=32, out_features=128, bias=False)
                    )
                    (lora_embedding_A): ParameterDict()
                    (lora_embedding_B): ParameterDict()
                    (lora_magnitude_vector): ModuleDict()
                  )
                  (1): Sigmoid()
                )
                (v_core_attention_sdpa): ScaleDotProductAttention()
              )
              (mlp): Qwen2MLP(
                (gate_proj): lora.Linear(
                  (base_layer): Linear(in_features=3584, out_features=18944, bias=False)
                  (lora_dropout): ModuleDict(
                    (default): Identity()
                  )
                  (lora_A): ModuleDict(
                    (default): Linear(in_features=3584, out_features=32, bias=False)
                  )
                  (lora_B): ModuleDict(
                    (default): Linear(in_features=32, out_features=18944, bias=False)
                  )
                  (lora_embedding_A): ParameterDict()
                  (lora_embedding_B): ParameterDict()
                  (lora_magnitude_vector): ModuleDict()
                )
                (up_proj): lora.Linear(
                  (base_layer): Linear(in_features=3584, out_features=18944, bias=False)
                  (lora_dropout): ModuleDict(
                    (default): Identity()
                  )
                  (lora_A): ModuleDict(
                    (default): Linear(in_features=3584, out_features=32, bias=False)
                  )
                  (lora_B): ModuleDict(
                    (default): Linear(in_features=32, out_features=18944, bias=False)
                  )
                  (lora_embedding_A): ParameterDict()
                  (lora_embedding_B): ParameterDict()
                  (lora_magnitude_vector): ModuleDict()
                )
                (down_proj): lora.Linear(
                  (base_layer): Linear(in_features=18944, out_features=3584, bias=False)
                  (lora_dropout): ModuleDict(
                    (default): Identity()
                  )
                  (lora_A): ModuleDict(
                    (default): Linear(in_features=18944, out_features=32, bias=False)
                  )
                  (lora_B): ModuleDict(
                    (default): Linear(in_features=32, out_features=3584, bias=False)
                  )
                  (lora_embedding_A): ParameterDict()
                  (lora_embedding_B): ParameterDict()
                  (lora_magnitude_vector): ModuleDict()
                )
                (act_fn): SiLU()
              )
              (input_layernorm): Qwen2RMSNorm()
              (post_attention_layernorm): Qwen2RMSNorm()
            )
            (1-7): 7 x HyperQwen2DecoderLayer(
              (self_attn): HyperQwen2SdpaAttention(
                (q_proj): lora.Linear(
                  (base_layer): Linear(in_features=3584, out_features=3584, bias=True)
                  (lora_dropout): ModuleDict(
                    (default): Identity()
                  )
                  (lora_A): ModuleDict(
                    (default): Linear(in_features=3584, out_features=32, bias=False)
                  )
                  (lora_B): ModuleDict(
                    (default): Linear(in_features=32, out_features=3584, bias=False)
                  )
                  (lora_embedding_A): ParameterDict()
                  (lora_embedding_B): ParameterDict()
                  (lora_magnitude_vector): ModuleDict()
                )
                (k_proj): lora.Linear(
                  (base_layer): Linear(in_features=3584, out_features=512, bias=True)
                  (lora_dropout): ModuleDict(
                    (default): Identity()
                  )
                  (lora_A): ModuleDict(
                    (default): Linear(in_features=3584, out_features=32, bias=False)
                  )
                  (lora_B): ModuleDict(
                    (default): Linear(in_features=32, out_features=512, bias=False)
                  )
                  (lora_embedding_A): ParameterDict()
                  (lora_embedding_B): ParameterDict()
                  (lora_magnitude_vector): ModuleDict()
                )
                (v_proj): lora.Linear(
                  (base_layer): Linear(in_features=3584, out_features=512, bias=True)
                  (lora_dropout): ModuleDict(
                    (default): Identity()
                  )
                  (lora_A): ModuleDict(
                    (default): Linear(in_features=3584, out_features=32, bias=False)
                  )
                  (lora_B): ModuleDict(
                    (default): Linear(in_features=32, out_features=512, bias=False)
                  )
                  (lora_embedding_A): ParameterDict()
                  (lora_embedding_B): ParameterDict()
                  (lora_magnitude_vector): ModuleDict()
                )
                (o_proj): lora.Linear(
                  (base_layer): Linear(in_features=3584, out_features=3584, bias=False)
                  (lora_dropout): ModuleDict(
                    (default): Identity()
                  )
                  (lora_A): ModuleDict(
                    (default): Linear(in_features=3584, out_features=32, bias=False)
                  )
                  (lora_B): ModuleDict(
                    (default): Linear(in_features=32, out_features=3584, bias=False)
                  )
                  (lora_embedding_A): ParameterDict()
                  (lora_embedding_B): ParameterDict()
                  (lora_magnitude_vector): ModuleDict()
                )
                (rotary_emb): Qwen2RotaryEmbedding()
                (rotary_emb_core): RotaryEmbedding()
              )
              (mlp): Qwen2MLP(
                (gate_proj): lora.Linear(
                  (base_layer): Linear(in_features=3584, out_features=18944, bias=False)
                  (lora_dropout): ModuleDict(
                    (default): Identity()
                  )
                  (lora_A): ModuleDict(
                    (default): Linear(in_features=3584, out_features=32, bias=False)
                  )
                  (lora_B): ModuleDict(
…
                  (lora_magnitude_vector): ModuleDict()
                )
                (act_fn): SiLU()
              )
              (input_layernorm): Qwen2RMSNorm()
              (post_attention_layernorm): Qwen2RMSNorm()
            )
            (17-23): 7 x HyperQwen2DecoderLayer(
              (self_attn): HyperQwen2SdpaAttention(
                (q_proj): lora.Linear(
                  (base_layer): Linear(in_features=3584, out_features=3584, bias=True)
                  (lora_dropout): ModuleDict(
                    (default): Identity()
                  )
                  (lora_A): ModuleDict(
                    (default): Linear(in_features=3584, out_features=32, bias=False)
                  )
                  (lora_B): ModuleDict(
                    (default): Linear(in_features=32, out_features=3584, bias=False)
                  )
                  (lora_embedding_A): ParameterDict()
                  (lora_embedding_B): ParameterDict()
                  (lora_magnitude_vector): ModuleDict()
                )
                (k_proj): lora.Linear(
                  (base_layer): Linear(in_features=3584, out_features=512, bias=True)
                  (lora_dropout): ModuleDict(
                    (default): Identity()
                  )
                  (lora_A): ModuleDict(
                    (default): Linear(in_features=3584, out_features=32, bias=False)
                  )
                  (lora_B): ModuleDict(
                    (default): Linear(in_features=32, out_features=512, bias=False)
                  )
                  (lora_embedding_A): ParameterDict()
                  (lora_embedding_B): ParameterDict()
                  (lora_magnitude_vector): ModuleDict()
                )
                (v_proj): lora.Linear(
                  (base_layer): Linear(in_features=3584, out_features=512, bias=True)
                  (lora_dropout): ModuleDict(
                    (default): Identity()
                  )
                  (lora_A): ModuleDict(
                    (default): Linear(in_features=3584, out_features=32, bias=False)
                  )
                  (lora_B): ModuleDict(
                    (default): Linear(in_features=32, out_features=512, bias=False)
                  )
                  (lora_embedding_A): ParameterDict()
                  (lora_embedding_B): ParameterDict()
                  (lora_magnitude_vector): ModuleDict()
                )
                (o_proj): lora.Linear(
                  (base_layer): Linear(in_features=3584, out_features=3584, bias=False)
                  (lora_dropout): ModuleDict(
                    (default): Identity()
                  )
                  (lora_A): ModuleDict(
                    (default): Linear(in_features=3584, out_features=32, bias=False)
                  )
                  (lora_B): ModuleDict(
                    (default): Linear(in_features=32, out_features=3584, bias=False)
                  )
                  (lora_embedding_A): ParameterDict()
                  (lora_embedding_B): ParameterDict()
                  (lora_magnitude_vector): ModuleDict()
                )
                (rotary_emb): Qwen2RotaryEmbedding()
                (rotary_emb_core): RotaryEmbedding()
              )
              (mlp): Qwen2MLP(
                (gate_proj): lora.Linear(
                  (base_layer): Linear(in_features=3584, out_features=18944, bias=False)
                  (lora_dropout): ModuleDict(
                    (default): Identity()
                  )
                  (lora_A): ModuleDict(
                    (default): Linear(in_features=3584, out_features=32, bias=False)
                  )
                  (lora_B): ModuleDict(
                    (default): Linear(in_features=32, out_features=18944, bias=False)
                  )
                  (lora_embedding_A): ParameterDict()
                  (lora_embedding_B): ParameterDict()
                  (lora_magnitude_vector): ModuleDict()
                )
                (up_proj): lora.Linear(
                  (base_layer): Linear(in_features=3584, out_features=18944, bias=False)
                  (lora_dropout): ModuleDict(
                    (default): Identity()
                  )
                  (lora_A): ModuleDict(
                    (default): Linear(in_features=3584, out_features=32, bias=False)
                  )
                  (lora_B): ModuleDict(
                    (default): Linear(in_features=32, out_features=18944, bias=False)
                  )
                  (lora_embedding_A): ParameterDict()
                  (lora_embedding_B): ParameterDict()
                  (lora_magnitude_vector): ModuleDict()
                )
                (down_proj): lora.Linear(
                  (base_layer): Linear(in_features=18944, out_features=3584, bias=False)
                  (lora_dropout): ModuleDict(
                    (default): Identity()
                  )
                  (lora_A): ModuleDict(
                    (default): Linear(in_features=18944, out_features=32, bias=False)
                  )
                  (lora_B): ModuleDict(
                    (default): Linear(in_features=32, out_features=3584, bias=False)
                  )
                  (lora_embedding_A): ParameterDict()
                  (lora_embedding_B): ParameterDict()
                  (lora_magnitude_vector): ModuleDict()
                )
                (act_fn): SiLU()
              )
              (input_layernorm): Qwen2RMSNorm()
              (post_attention_layernorm): Qwen2RMSNorm()
            )
            (24): HyperQwen2DecoderLayer(
              (self_attn): HyperQwen2SdpaAttention(
                (q_proj): lora.Linear(
                  (base_layer): Linear(in_features=3584, out_features=3584, bias=True)
                  (lora_dropout): ModuleDict(
                    (default): Identity()
                  )
                  (lora_A): ModuleDict(
                    (default): Linear(in_features=3584, out_features=32, bias=False)
                  )
                  (lora_B): ModuleDict(
                    (default): Linear(in_features=32, out_features=3584, bias=False)
                  )
                  (lora_embedding_A): ParameterDict()
                  (lora_embedding_B): ParameterDict()
                  (lora_magnitude_vector): ModuleDict()
                )
                (k_proj): lora.Linear(
                  (base_layer): Linear(in_features=3584, out_features=512, bias=True)
                  (lora_dropout): ModuleDict(
                    (default): Identity()
                  )
                  (lora_A): ModuleDict(
                    (default): Linear(in_features=3584, out_features=32, bias=False)
                  )
                  (lora_B): ModuleDict(
                    (default): Linear(in_features=32, out_features=512, bias=False)
                  )
                  (lora_embedding_A): ParameterDict()
                  (lora_embedding_B): ParameterDict()
                  (lora_magnitude_vector): ModuleDict()
                )
                (v_proj): lora.Linear(
                  (base_layer): Linear(in_features=3584, out_features=512, bias=True)
                  (lora_dropout): ModuleDict(
                    (default): Identity()
                  )
                  (lora_A): ModuleDict(
                    (default): Linear(in_features=3584, out_features=32, bias=False)
                  )
                  (lora_B): ModuleDict(
                    (default): Linear(in_features=32, out_features=512, bias=False)
                  )
                  (lora_embedding_A): ParameterDict()
                  (lora_embedding_B): ParameterDict()
                  (lora_magnitude_vector): ModuleDict()
                )
                (o_proj): lora.Linear(
                  (base_layer): Linear(in_features=3584, out_features=3584, bias=False)
                  (lora_dropout): ModuleDict(
                    (default): Identity()
                  )
                  (lora_A): ModuleDict(
                    (default): Linear(in_features=3584, out_features=32, bias=False)
                  )
                  (lora_B): ModuleDict(
                    (default): Linear(in_features=32, out_features=3584, bias=False)
                  )
                  (lora_embedding_A): ParameterDict()
                  (lora_embedding_B): ParameterDict()
                  (lora_magnitude_vector): ModuleDict()
                )
                (rotary_emb): Qwen2RotaryEmbedding()
                (rotary_emb_core): RotaryEmbedding()
                (v_kv_proj): lora.Linear(
                  (base_layer): Linear(in_features=3584, out_features=1024, bias=True)
                  (lora_dropout): ModuleDict(
                    (default): Identity()
                  )
                  (lora_A): ModuleDict(
                    (default): Linear(in_features=3584, out_features=32, bias=False)
                  )
                  (lora_B): ModuleDict(
                    (default): Linear(in_features=32, out_features=1024, bias=False)
                  )
                  (lora_embedding_A): ParameterDict()
                  (lora_embedding_B): ParameterDict()
                  (lora_magnitude_vector): ModuleDict()
                )
                (gate_proj): Sequential(
                  (0): lora.Linear(
                    (base_layer): Linear(in_features=128, out_features=128, bias=True)
                    (lora_dropout): ModuleDict(
                      (default): Identity()
                    )
                    (lora_A): ModuleDict(
                      (default): Linear(in_features=128, out_features=32, bias=False)
                    )
                    (lora_B): ModuleDict(
                      (default): Linear(in_features=32, out_features=128, bias=False)
                    )
                    (lora_embedding_A): ParameterDict()
                    (lora_embedding_B): ParameterDict()
                    (lora_magnitude_vector): ModuleDict()
                  )
                  (1): Sigmoid()
                )
                (v_core_attention_sdpa): ScaleDotProductAttention()
              )
              (mlp): Qwen2MLP(
                (gate_proj): lora.Linear(
                  (base_layer): Linear(in_features=3584, out_features=18944, bias=False)
                  (lora_dropout): ModuleDict(
                    (default): Identity()
                  )
                  (lora_A): ModuleDict(
                    (default): Linear(in_features=3584, out_features=32, bias=False)
                  )
                  (lora_B): ModuleDict(
                    (default): Linear(in_features=32, out_features=18944, bias=False)
                  )
                  (lora_embedding_A): ParameterDict()
                  (lora_embedding_B): ParameterDict()
                  (lora_magnitude_vector): ModuleDict()
                )
                (up_proj): lora.Linear(
                  (base_layer): Linear(in_features=3584, out_features=18944, bias=False)
                  (lora_dropout): ModuleDict(
                    (default): Identity()
                  )
                  (lora_A): ModuleDict(
                    (default): Linear(in_features=3584, out_features=32, bias=False)
                  )
                  (lora_B): ModuleDict(
                    (default): Linear(in_features=32, out_features=18944, bias=False)
                  )
                  (lora_embedding_A): ParameterDict()
                  (lora_embedding_B): ParameterDict()
                  (lora_magnitude_vector): ModuleDict()
                )
                (down_proj): lora.Linear(
                  (base_layer): Linear(in_features=18944, out_features=3584, bias=False)
                  (lora_dropout): ModuleDict(
                    (default): Identity()
                  )
                  (lora_A): ModuleDict(
                    (default): Linear(in_features=18944, out_features=32, bias=False)
                  )
                  (lora_B): ModuleDict(
                    (default): Linear(in_features=32, out_features=3584, bias=False)
                  )
                  (lora_embedding_A): ParameterDict()
                  (lora_embedding_B): ParameterDict()
                  (lora_magnitude_vector): ModuleDict()
                )
                (act_fn): SiLU()
              )
              (input_layernorm): Qwen2RMSNorm()
              (post_attention_layernorm): Qwen2RMSNorm()
            )
            (25-27): 3 x HyperQwen2DecoderLayer(
              (self_attn): HyperQwen2SdpaAttention(
                (q_proj): lora.Linear(
                  (base_layer): Linear(in_features=3584, out_features=3584, bias=True)
                  (lora_dropout): ModuleDict(
                    (default): Identity()
                  )
                  (lora_A): ModuleDict(
                    (default): Linear(in_features=3584, out_features=32, bias=False)
                  )
                  (lora_B): ModuleDict(
                    (default): Linear(in_features=32, out_features=3584, bias=False)
                  )
                  (lora_embedding_A): ParameterDict()
                  (lora_embedding_B): ParameterDict()
                  (lora_magnitude_vector): ModuleDict()
                )
                (k_proj): lora.Linear(
                  (base_layer): Linear(in_features=3584, out_features=512, bias=True)
                  (lora_dropout): ModuleDict(
                    (default): Identity()
                  )
                  (lora_A): ModuleDict(
                    (default): Linear(in_features=3584, out_features=32, bias=False)
                  )
                  (lora_B): ModuleDict(
                    (default): Linear(in_features=32, out_features=512, bias=False)
                  )
                  (lora_embedding_A): ParameterDict()
                  (lora_embedding_B): ParameterDict()
                  (lora_magnitude_vector): ModuleDict()
                )
                (v_proj): lora.Linear(
                  (base_layer): Linear(in_features=3584, out_features=512, bias=True)
                  (lora_dropout): ModuleDict(
                    (default): Identity()
                  )
                  (lora_A): ModuleDict(
                    (default): Linear(in_features=3584, out_features=32, bias=False)
                  )
                  (lora_B): ModuleDict(
                    (default): Linear(in_features=32, out_features=512, bias=False)
                  )
                  (lora_embedding_A): ParameterDict()
                  (lora_embedding_B): ParameterDict()
                  (lora_magnitude_vector): ModuleDict()
                )
                (o_proj): lora.Linear(
                  (base_layer): Linear(in_features=3584, out_features=3584, bias=False)
                  (lora_dropout): ModuleDict(
                    (default): Identity()
                  )
                  (lora_A): ModuleDict(
                    (default): Linear(in_features=3584, out_features=32, bias=False)
                  )
                  (lora_B): ModuleDict(
                    (default): Linear(in_features=32, out_features=3584, bias=False)
                  )
                  (lora_embedding_A): ParameterDict()
                  (lora_embedding_B): ParameterDict()
                  (lora_magnitude_vector): ModuleDict()
                )
                (rotary_emb): Qwen2RotaryEmbedding()
                (rotary_emb_core): RotaryEmbedding()
              )
              (mlp): Qwen2MLP(
                (gate_proj): lora.Linear(
                  (base_layer): Linear(in_features=3584, out_features=18944, bias=False)
                  (lora_dropout): ModuleDict(
                    (default): Identity()
                  )
                  (lora_A): ModuleDict(
                    (default): Linear(in_features=3584, out_features=32, bias=False)
                  )
                  (lora_B): ModuleDict(
                    (default): Linear(in_features=32, out_features=18944, bias=False)
                  )
                  (lora_embedding_A): ParameterDict()
                  (lora_embedding_B): ParameterDict()
                  (lora_magnitude_vector): ModuleDict()
                )
                (up_proj): lora.Linear(
                  (base_layer): Linear(in_features=3584, out_features=18944, bias=False)
                  (lora_dropout): ModuleDict(
                    (default): Identity()
                  )
                  (lora_A): ModuleDict(
                    (default): Linear(in_features=3584, out_features=32, bias=False)
                  )
                  (lora_B): ModuleDict(
                    (default): Linear(in_features=32, out_features=18944, bias=False)
                  )
                  (lora_embedding_A): ParameterDict()
                  (lora_embedding_B): ParameterDict()
                  (lora_magnitude_vector): ModuleDict()
                )
                (down_proj): lora.Linear(
                  (base_layer): Linear(in_features=18944, out_features=3584, bias=False)
                  (lora_dropout): ModuleDict(
                    (default): Identity()
                  )
                  (lora_A): ModuleDict(
                    (default): Linear(in_features=18944, out_features=32, bias=False)
                  )
                  (lora_B): ModuleDict(
                    (default): Linear(in_features=32, out_features=3584, bias=False)
                  )
                  (lora_embedding_A): ParameterDict()
                  (lora_embedding_B): ParameterDict()
                  (lora_magnitude_vector): ModuleDict()
                )
                (act_fn): SiLU()
              )
              (input_layernorm): Qwen2RMSNorm()
              (post_attention_layernorm): Qwen2RMSNorm()
            )
          )
          (norm): Qwen2RMSNorm()
        )
        (lm_head): Linear(in_features=3584, out_features=151851, bias=False)
      )
      (vision_model): SiglipVisionTransformer(
        (embeddings): SiglipVisionEmbeddings(
          (patch_embedding): Conv2d(3, 1152, kernel_size=(14, 14), stride=(14, 14), padding=valid)
          (position_embedding): Embedding(729, 1152)
        )
        (encoder): SiglipEncoder(
          (layers): ModuleList(
            (0-26): 27 x SiglipEncoderLayer(
              (self_attn): SiglipAttention(
                (k_proj): Linear(in_features=1152, out_features=1152, bias=True)
                (v_proj): Linear(in_features=1152, out_features=1152, bias=True)
                (q_proj): Linear(in_features=1152, out_features=1152, bias=True)
                (out_proj): Linear(in_features=1152, out_features=1152, bias=True)
              )
              (layer_norm1): LayerNorm((1152,), eps=1e-06, elementwise_affine=True)
              (mlp): SiglipMLP(
                (activation_fn): PytorchGELUTanh()
                (fc1): Linear(in_features=1152, out_features=4304, bias=True)
                (fc2): Linear(in_features=4304, out_features=1152, bias=True)
              )
              (layer_norm2): LayerNorm((1152,), eps=1e-06, elementwise_affine=True)
            )
          )
        )
        (post_layernorm): LayerNorm((1152,), eps=1e-06, elementwise_affine=True)
        (head): SiglipMultiheadAttentionPoolingHead(
          (attention): MultiheadAttention(
            (out_proj): NonDynamicallyQuantizableLinear(in_features=1152, out_features=1152, bias=True)
          )
          (layernorm): LayerNorm((1152,), eps=1e-06, elementwise_affine=True)
          (mlp): SiglipMLP(
            (activation_fn): PytorchGELUTanh()
            (fc1): Linear(in_features=1152, out_features=4304, bias=True)
            (fc2): Linear(in_features=4304, out_features=1152, bias=True)
          )
        )
      )
      (vision2text_model): Linear(in_features=1152, out_features=3584, bias=True)
    )
  )
)
[INFO:swift] model_parameter_info: PeftModelForCausalLM: 8142.5608M Params (81.3629M Trainable [0.9992%]), 234.8835M Buffers.
run sh: `/mnt/beegfs/xr/lm_initial_step/envs/swift_env/bin/python3.10 /mnt/beegfs/xr/lm_initial_step/envs/swift_env/lib/python3.10/site-packages/swift/cli/sft.py --model /mnt/beegfs/xr/models/vl/mPLUG-Owl3-7B-24072
…
k_pattern={}, alpha_pattern={}, megatron_config=None, megatron_core='megatron.core', trainable_token_indices=None, loftq_config={}, eva_config=None, corda_config=None, use_dora=False, use_qalora=False, qalora_group_size=16, layer_replication=None, runtime_config=LoraRuntimeConfig(ephemeral_gpu_offload=False), lora_bias=False, lora_dtype=None, lorap_lr_ratio=None, lorap_emb_lr=1e-06)
[INFO:swift] model: PeftModelForCausalLM(
  (base_model): LoraModel(
    (model): InternVLChatModel(
      (vision_model): InternVisionModel(
        (embeddings): InternVisionEmbeddings(
          (patch_embedding): Conv2d(3, 1024, kernel_size=(14, 14), stride=(14, 14))
        )
        (encoder): InternVisionEncoder(
          (layers): ModuleList(
            (0): InternVisionEncoderLayer(
              (attn): InternAttention(
                (qkv): Linear(in_features=1024, out_features=3072, bias=True)
                (attn_drop): Dropout(p=0.0, inplace=False)
                (proj_drop): Dropout(p=0.0, inplace=False)
                (inner_attn): FlashAttention()
                (proj): Linear(in_features=1024, out_features=1024, bias=True)
              )
              (mlp): InternMLP(
                (act): GELUActivation()
                (fc1): Linear(in_features=1024, out_features=4096, bias=True)
                (fc2): Linear(in_features=4096, out_features=1024, bias=True)
              )
              (norm1): LayerNorm((1024,), eps=1e-06, elementwise_affine=True)
              (norm2): LayerNorm((1024,), eps=1e-06, elementwise_affine=True)
              (drop_path1): Identity()
              (drop_path2): Identity()
            )
            (1): InternVisionEncoderLayer(
              (attn): InternAttention(
                (qkv): Linear(in_features=1024, out_features=3072, bias=True)
                (attn_drop): Dropout(p=0.0, inplace=False)
                (proj_drop): Dropout(p=0.0, inplace=False)
                (inner_attn): FlashAttention()
                (proj): Linear(in_features=1024, out_features=1024, bias=True)
              )
              (mlp): InternMLP(
                (act): GELUActivation()
                (fc1): Linear(in_features=1024, out_features=4096, bias=True)
                (fc2): Linear(in_features=4096, out_features=1024, bias=True)
              )
              (norm1): LayerNorm((1024,), eps=1e-06, elementwise_affine=True)
              (norm2): LayerNorm((1024,), eps=1e-06, elementwise_affine=True)
              (drop_path1): DropPath(drop_prob=0.004)
              (drop_path2): DropPath(drop_prob=0.004)
            )
            (2): InternVisionEncoderLayer(
              (attn): InternAttention(
                (qkv): Linear(in_features=1024, out_features=3072, bias=True)
                (attn_drop): Dropout(p=0.0, inplace=False)
                (proj_drop): Dropout(p=0.0, inplace=False)
                (inner_attn): FlashAttention()
                (proj): Linear(in_features=1024, out_features=1024, bias=True)
              )
              (mlp): InternMLP(
                (act): GELUActivation()
                (fc1): Linear(in_features=1024, out_features=4096, bias=True)
                (fc2): Linear(in_features=4096, out_features=1024, bias=True)
              )
              (norm1): LayerNorm((1024,), eps=1e-06, elementwise_affine=True)
              (norm2): LayerNorm((1024,), eps=1e-06, elementwise_affine=True)
              (drop_path1): DropPath(drop_prob=0.009)
              (drop_path2): DropPath(drop_prob=0.009)
            )
            (3): InternVisionEncoderLayer(
              (attn): InternAttention(
                (qkv): Linear(in_features=1024, out_features=3072, bias=True)
                (attn_drop): Dropout(p=0.0, inplace=False)
                (proj_drop): Dropout(p=0.0, inplace=False)
                (inner_attn): FlashAttention()
                (proj): Linear(in_features=1024, out_features=1024, bias=True)
              )
              (mlp): InternMLP(
                (act): GELUActivation()
                (fc1): Linear(in_features=1024, out_features=4096, bias=True)
                (fc2): Linear(in_features=4096, out_features=1024, bias=True)
              )
              (norm1): LayerNorm((1024,), eps=1e-06, elementwise_affine=True)
              (norm2): LayerNorm((1024,), eps=1e-06, elementwise_affine=True)
              (drop_path1): DropPath(drop_prob=0.013)
              (drop_path2): DropPath(drop_prob=0.013)
            )
            (4): InternVisionEncoderLayer(
              (attn): InternAttention(
                (qkv): Linear(in_features=1024, out_features=3072, bias=True)
                (attn_drop): Dropout(p=0.0, inplace=False)
                (proj_drop): Dropout(p=0.0, inplace=False)
                (inner_attn): FlashAttention()
                (proj): Linear(in_features=1024, out_features=1024, bias=True)
              )
              (mlp): InternMLP(
                (act): GELUActivation()
                (fc1): Linear(in_features=1024, out_features=4096, bias=True)
                (fc2): Linear(in_features=4096, out_features=1024, bias=True)
              )
              (norm1): LayerNorm((1024,), eps=1e-06, elementwise_affine=True)
              (norm2): LayerNorm((1024,), eps=1e-06, elementwise_affine=True)
              (drop_path1): DropPath(drop_prob=0.017)
              (drop_path2): DropPath(drop_prob=0.017)
            )
            (5): InternVisionEncoderLayer(
              (attn): InternAttention(
                (qkv): Linear(in_features=1024, out_features=3072, bias=True)
                (attn_drop): Dropout(p=0.0, inplace=False)
                (proj_drop): Dropout(p=0.0, inplace=False)
                (inner_attn): FlashAttention()
                (proj): Linear(in_features=1024, out_features=1024, bias=True)
              )
              (mlp): InternMLP(
                (act): GELUActivation()
                (fc1): Linear(in_features=1024, out_features=4096, bias=True)
                (fc2): Linear(in_features=4096, out_features=1024, bias=True)
              )
              (norm1): LayerNorm((1024,), eps=1e-06, elementwise_affine=True)
              (norm2): LayerNorm((1024,), eps=1e-06, elementwise_affine=True)
              (drop_path1): DropPath(drop_prob=0.022)
              (drop_path2): DropPath(drop_prob=0.022)
            )
            (6): InternVisionEncoderLayer(
              (attn): InternAttention(
                (qkv): Linear(in_features=1024, out_features=3072, bias=True)
                (attn_drop): Dropout(p=0.0, inplace=False)
                (proj_drop): Dropout(p=0.0, inplace=False)
                (inner_attn): FlashAttention()
                (proj): Linear(in_features=1024, out_features=1024, bias=True)
              )
              (mlp): InternMLP(
                (act): GELUActivation()
                (fc1): Linear(in_features=1024, out_features=4096, bias=True)
                (fc2): Linear(in_features=4096, out_features=1024, bias=True)
              )
              (norm1): LayerNorm((1024,), eps=1e-06, elementwise_affine=True)
              (norm2): LayerNorm((1024,), eps=1e-06, elementwise_affine=True)
              (drop_path1): DropPath(drop_prob=0.026)
              (drop_path2): DropPath(drop_prob=0.026)
            )
            (7): InternVisionEncoderLayer(
              (attn): InternAttention(
                (qkv): Linear(in_features=1024, out_features=3072, bias=True)
                (attn_drop): Dropout(p=0.0, inplace=False)
                (proj_drop): Dropout(p=0.0, inplace=False)
                (inner_attn): FlashAttention()
                (proj): Linear(in_features=1024, out_features=1024, bias=True)
              )
              (mlp): InternMLP(
                (act): GELUActivation()
                (fc1): Linear(in_features=1024, out_features=4096, bias=True)
                (fc2): Linear(in_features=4096, out_features=1024, bias=True)
              )
              (norm1): LayerNorm((1024,), eps=1e-06, elementwise_affine=True)
              (norm2): LayerNorm((1024,), eps=1e-06, elementwise_affine=True)
              (drop_path1): DropPath(drop_prob=0.030)
              (drop_path2): DropPath(drop_prob=0.030)
            )
            (8): InternVisionEncoderLayer(
              (attn): InternAttention(
                (qkv): Linear(in_features=1024, out_features=3072, bias=True)
                (attn_drop): Dropout(p=0.0, inplace=False)
                (proj_drop): Dropout(p=0.0, inplace=False)
                (inner_attn): FlashAttention()
                (proj): Linear(in_features=1024, out_features=1024, bias=True)
              )
              (mlp): InternMLP(
                (act): GELUActivation()
                (fc1): Linear(in_features=1024, out_features=4096, bias=True)
                (fc2): Linear(in_features=4096, out_features=1024, bias=True)
              )
              (norm1): LayerNorm((1024,), eps=1e-06, elementwise_affine=True)
              (norm2): LayerNorm((1024,), eps=1e-06, elementwise_affine=True)
              (drop_path1): DropPath(drop_prob=0.035)
              (drop_path2): DropPath(drop_prob=0.035)
            )
            (9): InternVisionEncoderLayer(
              (attn): InternAttention(
                (qkv): Linear(in_features=1024, out_features=3072, bias=True)
                (attn_drop): Dropout(p=0.0, inplace=False)
                (proj_drop): Dropout(p=0.0, inplace=False)
                (inner_attn): FlashAttention()
                (proj): Linear(in_features=1024, out_features=1024, bias=True)
              )
              (mlp): InternMLP(
                (act): GELUActivation()
                (fc1): Linear(in_features=1024, out_features=4096, bias=True)
                (fc2): Linear(in_features=4096, out_features=1024, bias=True)
              )
              (norm1): LayerNorm((1024,), eps=1e-06, elementwise_affine=True)
              (norm2): LayerNorm((1024,), eps=1e-06, elementwise_affine=True)
              (drop_path1): DropPath(drop_prob=0.039)
              (drop_path2): DropPath(drop_prob=0.039)
            )
            (10): InternVisionEncoderLayer(
              (attn): InternAttention(
                (qkv): Linear(in_features=1024, out_features=3072, bias=True)
                (attn_drop): Dropout(p=0.0, inplace=False)
                (proj_drop): Dropout(p=0.0, inplace=False)
                (inner_attn): FlashAttention()
                (proj): Linear(in_features=1024, out_features=1024, bias=True)
              )
              (mlp): InternMLP(
                (act): GELUActivation()
                (fc1): Linear(in_features=1024, out_features=4096, bias=True)
                (fc2): Linear(in_features=4096, out_features=1024, bias=True)
              )
              (norm1): LayerNorm((1024,), eps=1e-06, elementwise_affine=True)
              (norm2): LayerNorm((1024,), eps=1e-06, elementwise_affine=True)
              (drop_path1): DropPath(drop_prob=0.043)
              (drop_path2): DropPath(drop_prob=0.043)
            )
            (11): InternVisionEncoderLayer(
              (attn): InternAttention(
                (qkv): Linear(in_features=1024, out_features=3072, bias=True)
                (attn_drop): Dropout(p=0.0, inplace=False)
                (proj_drop): Dropout(p=0.0, inplace=False)
                (inner_attn): FlashAttention()
                (proj): Linear(in_features=1024, out_features=1024, bias=True)
              )
              (mlp): InternMLP(
                (act): GELUActivation()
                (fc1): Linear(in_features=1024, out_features=4096, bias=True)
                (fc2): Linear(in_features=4096, out_features=1024, bias=True)
              )
              (norm1): LayerNorm((1024,), eps=1e-06, elementwise_affine=True)
              (norm2): LayerNorm((1024,), eps=1e-06, elementwise_affine=True)
              (drop_path1): DropPath(drop_prob=0.048)
              (drop_path2): DropPath(drop_prob=0.048)
            )
            (12): InternVisionEncoderLayer(
              (attn): InternAttention(
                (qkv): Linear(in_features=1024, out_features=3072, bias=True)
                (attn_drop): Dropout(p=0.0, inplace=False)
                (proj_drop): Dropout(p=0.0, inplace=False)
                (inner_attn): FlashAttention()
                (proj): Linear(in_features=1024, out_features=1024, bias=True)
              )
              (mlp): InternMLP(
                (act): GELUActivation()
                (fc1): Linear(in_features=1024, out_features=4096, bias=True)
                (fc2): Linear(in_features=4096, out_features=1024, bias=True)
              )
              (norm1): LayerNorm((1024,), eps=1e-06, elementwise_affine=True)
              (norm2): LayerNorm((1024,), eps=1e-06, elementwise_affine=True)
              (drop_path1): DropPath(drop_prob=0.052)
              (drop_path2): DropPath(drop_prob=0.052)
            )
            (13): InternVisionEncoderLayer(
              (attn): InternAttention(
                (qkv): Linear(in_features=1024, out_features=3072, bias=True)
                (attn_drop): Dropout(p=0.0, inplace=False)
                (proj_drop): Dropout(p=0.0, inplace=False)
                (inner_attn): FlashAttention()
                (proj): Linear(in_features=1024, out_features=1024, bias=True)
              )
              (mlp): InternMLP(
                (act): GELUActivation()
                (fc1): Linear(in_features=1024, out_features=4096, bias=True)
                (fc2): Linear(in_features=4096, out_features=1024, bias=True)
              )
              (norm1): LayerNorm((1024,), eps=1e-06, elementwise_affine=True)
              (norm2): LayerNorm((1024,), eps=1e-06, elementwise_affine=True)
              (drop_path1): DropPath(drop_prob=0.057)
              (drop_path2): DropPath(drop_prob=0.057)
            )
            (14): InternVisionEncoderLayer(
              (attn): InternAttention(
                (qkv): Linear(in_features=1024, out_features=3072, bias=True)
                (attn_drop): Dropout(p=0.0, inplace=False)
                (proj_drop): Dropout(p=0.0, inplace=False)
                (inner_attn): FlashAttention()
                (proj): Linear(in_features=1024, out_features=1024, bias=True)
              )
              (mlp): InternMLP(
                (act): GELUActivation()
                (fc1): Linear(in_features=1024, out_features=4096, bias=True)
                (fc2): Linear(in_features=4096, out_features=1024, bias=True)
              )
              (norm1): LayerNorm((1024,), eps=1e-06, elementwise_affine=True)
              (norm2): LayerNorm((1024,), eps=1e-06, elementwise_affine=True)
              (drop_path1): DropPath(drop_prob=0.061)
              (drop_path2): DropPath(drop_prob=0.061)
            )
            (15): InternVisionEncoderLayer(
              (attn): InternAttention(
                (qkv): Linear(in_features=1024, out_features=3072, bias=True)
                (attn_drop): Dropout(p=0.0, inplace=False)
                (proj_drop): Dropout(p=0.0, inplace=False)
                (inner_attn): FlashAttention()
                (proj): Linear(in_features=1024, out_features=1024, bias=True)
              )
              (mlp): InternMLP(
                (act): GELUActivation()
                (fc1): Linear(in_features=1024, out_features=4096, bias=True)
                (fc2): Linear(in_features=4096, out_features=1024, bias=True)
              )
              (norm1): LayerNorm((1024,), eps=1e-06, elementwise_affine=True)
              (norm2): LayerNorm((1024,), eps=1e-06, elementwise_affine=True)
              (drop_path1): DropPath(drop_prob=0.065)
              (drop_path2): DropPath(drop_prob=0.065)
            )
            (16): InternVisionEncoderLayer(
              (attn): InternAttention(
                (qkv): Linear(in_features=1024, out_features=3072, bias=True)
                (attn_drop): Dropout(p=0.0, inplace=False)
                (proj_drop): Dropout(p=0.0, inplace=False)
                (inner_attn): FlashAttention()
                (proj): Linear(in_features=1024, out_features=1024, bias=True)
              )
              (mlp): InternMLP(
                (act): GELUActivation()
                (fc1): Linear(in_features=1024, out_features=4096, bias=True)
                (fc2): Linear(in_features=4096, out_features=1024, bias=True)
              )
              (norm1): LayerNorm((1024,), eps=1e-06, elementwise_affine=True)
              (norm2): LayerNorm((1024,), eps=1e-06, elementwise_affine=True)
              (drop_path1): DropPath(drop_prob=0.070)
              (drop_path2): DropPath(drop_prob=0.070)
            )
            (17): InternVisionEncoderLayer(
              (attn): InternAttention(
                (qkv): Linear(in_features=1024, out_features=3072, bias=True)
                (attn_drop): Dropout(p=0.0, inplace=False)
                (proj_drop): Dropout(p=0.0, inplace=False)
                (inner_attn): FlashAttention()
                (proj): Linear(in_features=1024, out_features=1024, bias=True)
              )
              (mlp): InternMLP(
                (act): GELUActivation()
                (fc1): Linear(in_features=1024, out_features=4096, bias=True)
                (fc2): Linear(in_features=4096, out_features=1024, bias=True)
              )
              (norm1): LayerNorm((1024,), eps=1e-06, elementwise_affine=True)
              (norm2): LayerNorm((1024,), eps=1e-06, elementwise_affine=True)
              (drop_path1): DropPath(drop_prob=0.074)
              (drop_path2): DropPath(drop_prob=0.074)
            )
            (18): InternVisionEncoderLayer(
              (attn): InternAttention(
                (qkv): Linear(in_features=1024, out_features=3072, bias=True)
                (attn_drop): Dropout(p=0.0, inplace=False)
                (proj_drop): Dropout(p=0.0, inplace=False)
                (inner_attn): FlashAttention()
                (proj): Linear(in_features=1024, out_features=1024, bias=True)
              )
              (mlp): InternMLP(
                (act): GELUActivation()
                (fc1): Linear(in_features=1024, out_features=4096, bias=True)
                (fc2): Linear(in_features=4096, out_features=1024, bias=True)
              )
              (norm1): LayerNorm((1024,), eps=1e-06, elementwise_affine=True)
              (norm2): LayerNorm((1024,), eps=1e-06, elementwise_affine=True)
              (drop_path1): DropPath(drop_prob=0.078)
              (drop_path2): DropPath(drop_prob=0.078)
            )
            (19): InternVisionEncoderLayer(
              (attn): InternAttention(
                (qkv): Linear(in_features=1024, out_features=3072, bias=True)
                (attn_drop): Dropout(p=0.0, inplace=False)
                (proj_drop): Dropout(p=0.0, inplace=False)
                (inner_attn): FlashAttention()
                (proj): Linear(in_features=1024, out_features=1024, bias=True)
              )
              (mlp): InternMLP(
                (act): GELUActivation()
                (fc1): Linear(in_features=1024, out_features=4096, bias=True)
                (fc2): Linear(in_features=4096, out_features=1024, bias=True)
              )
              (norm1): LayerNorm((1024,), eps=1e-06, elementwise_affine=True)
              (norm2): LayerNorm((1024,), eps=1e-06, elementwise_affine=True)
              (drop_path1): DropPath(drop_prob=0.083)
              (drop_path2): DropPath(drop_prob=0.083)
            )
            (20): InternVisionEncoderLayer(
              (attn): InternAttention(
                (qkv): Linear(in_features=1024, out_features=3072, bias=True)
                (attn_drop): Dropout(p=0.0, inplace=False)
                (proj_drop): Dropout(p=0.0, inplace=False)
                (inner_attn): FlashAttention()
                (proj): Linear(in_features=1024, out_features=1024, bias=True)
              )
              (mlp): InternMLP(
                (act): GELUActivation()
                (fc1): Linear(in_features=1024, out_features=4096, bias=True)
                (fc2): Linear(in_features=4096, out_features=1024, bias=True)
              )
              (norm1): LayerNorm((1024,), eps=1e-06, elementwise_affine=True)
              (norm2): LayerNorm((1024,), eps=1e-06, elementwise_affine=True)
              (drop_path1): DropPath(drop_prob=0.087)
              (drop_path2): DropPath(drop_prob=0.087)
            )
            (21): InternVisionEncoderLayer(
              (attn): InternAttention(
                (qkv): Linear(in_features=1024, out_features=3072, bias=True)
                (attn_drop): Dropout(p=0.0, inplace=False)
                (proj_drop): Dropout(p=0.0, inplace=False)
                (inner_attn): FlashAttention()
                (proj): Linear(in_features=1024, out_features=1024, bias=True)
              )
              (mlp): InternMLP(
                (act): GELUActivation()
                (fc1): Linear(in_features=1024, out_features=4096, bias=True)
                (fc2): Linear(in_features=4096, out_features=1024, bias=True)
              )
              (norm1): LayerNorm((1024,), eps=1e-06, elementwise_affine=True)
              (norm2): LayerNorm((1024,), eps=1e-06, elementwise_affine=True)
              (drop_path1): DropPath(drop_prob=0.091)
              (drop_path2): DropPath(drop_prob=0.091)
            )
            (22): InternVisionEncoderLayer(
              (attn): InternAttention(
                (qkv): Linear(in_features=1024, out_features=3072, bias=True)
                (attn_drop): Dropout(p=0.0, inplace=False)
                (proj_drop): Dropout(p=0.0, inplace=False)
                (inner_attn): FlashAttention()
                (proj): Linear(in_features=1024, out_features=1024, bias=True)
              )
              (mlp): InternMLP(
                (act): GELUActivation()
                (fc1): Linear(in_features=1024, out_features=4096, bias=True)
                (fc2): Linear(in_features=4096, out_features=1024, bias=True)
              )
              (norm1): LayerNorm((1024,), eps=1e-06, elementwise_affine=True)
              (norm2): LayerNorm((1024,), eps=1e-06, elementwise_affine=True)
              (drop_path1): DropPath(drop_prob=0.096)
              (drop_path2): DropPath(drop_prob=0.096)
            )
            (23): InternVisionEncoderLayer(
              (attn): InternAttention(
                (qkv): Linear(in_features=1024, out_features=3072, bias=True)
                (attn_drop): Dropout(p=0.0, inplace=False)
                (proj_drop): Dropout(p=0.0, inplace=False)
                (inner_attn): FlashAttention()
                (proj): Linear(in_features=1024, out_features=1024, bias=True)
              )
              (mlp): InternMLP(
                (act): GELUActivation()
                (fc1): Linear(in_features=1024, out_features=4096, bias=True)
                (fc2): Linear(in_features=4096, out_features=1024, bias=True)
              )
              (norm1): LayerNorm((1024,), eps=1e-06, elementwise_affine=True)
              (norm2): LayerNorm((1024,), eps=1e-06, elementwise_affine=True)
              (drop_path1): DropPath(drop_prob=0.100)
              (drop_path2): DropPath(drop_prob=0.100)
            )
          )
        )
      )
      (language_model): Qwen2ForCausalLM(
        (model): Qwen2Model(
          (embed_tokens): Embedding(151674, 5120)
          (layers): ModuleList(
            (0-47): 48 x Qwen2DecoderLayer(
              (self_attn): Qwen2Attention(
                (q_proj): lora.Linear(
                  (base_layer): Linear(in_features=5120, out_features=5120, bias=True)
                  (lora_dropout): ModuleDict(
                    (default): Identity()
                  )
                  (lora_A): ModuleDict(
                    (default): Linear(in_features=5120, out_features=32, bias=False)
                  )
                  (lora_B): ModuleDict(
                    (default): Linear(in_features=32, out_features=5120, bias=False)
                  )
                  (lora_embedding_A): ParameterDict()
                  (lora_embedding_B): ParameterDict()
                  (lora_magnitude_vector): ModuleDict()
                )
                (k_proj): lora.Linear(
                  (base_layer): Linear(in_features=5120, out_features=1024, bias=True)
                  (lora_dropout): ModuleDict(
                    (default): Identity()
                  )
                  (lora_A): ModuleDict(
                    (default): Linear(in_features=5120, out_features=32, bias=False)
                  )
                  (lora_B): ModuleDict(
                    (default): Linear(in_features=32, out_features=1024, bias=False)
                  )
                  (lora_embedding_A): ParameterDict()
                  (lora_embedding_B): ParameterDict()
                  (lora_magnitude_vector): ModuleDict()
                )
                (v_proj): lora.Linear(
                  (base_layer): Linear(in_features=5120, out_features=1024, bias=True)
                  (lora_dropout): ModuleDict(
                    (default): Identity()
                  )
                  (lora_A): ModuleDict(
                    (default): Linear(in_features=5120, out_features=32, bias=False)
                  )
                  (lora_B): ModuleDict(
                    (default): Linear(in_features=32, out_features=1024, bias=False)
                  )
                  (lora_embedding_A): ParameterDict()
                  (lora_embedding_B): ParameterDict()
                  (lora_magnitude_vector): ModuleDict()
                )
                (o_proj): lora.Linear(
                  (base_layer): Linear(in_features=5120, out_features=5120, bias=False)
                  (lora_dropout): ModuleDict(
                    (default): Identity()
                  )
                  (lora_A): ModuleDict(
                    (default): Linear(in_features=5120, out_features=32, bias=False)
                  )
                  (lora_B): ModuleDict(
                    (default): Linear(in_features=32, out_features=5120, bias=False)
                  )
                  (lora_embedding_A): ParameterDict()
                  (lora_embedding_B): ParameterDict()
                  (lora_magnitude_vector): ModuleDict()
                )
              )
              (mlp): Qwen2MLP(
                (gate_proj): lora.Linear(
                  (base_layer): Linear(in_features=5120, out_features=13824, bias=False)
                  (lora_dropout): ModuleDict(
                    (default): Identity()
                  )
                  (lora_A): ModuleDict(
                    (default): Linear(in_features=5120, out_features=32, bias=False)
                  )
                  (lora_B): ModuleDict(
                    (default): Linear(in_features=32, out_features=13824, bias=False)
                  )
                  (lora_embedding_A): ParameterDict()
                  (lora_embedding_B): ParameterDict()
                  (lora_magnitude_vector): ModuleDict()
                )
                (up_proj): lora.Linear(
                  (base_layer): Linear(in_features=5120, out_features=13824, bias=False)
                  (lora_dropout): ModuleDict(
                    (default): Identity()
                  )
                  (lora_A): ModuleDict(
                    (default): Linear(in_features=5120, out_features=32, bias=False)
                  )
                  (lora_B): ModuleDict(
                    (default): Linear(in_features=32, out_features=13824, bias=False)
                  )
                  (lora_embedding_A): ParameterDict()
                  (lora_embedding_B): ParameterDict()
                  (lora_magnitude_vector): ModuleDict()
                )
                (down_proj): lora.Linear(
                  (base_layer): Linear(in_features=13824, out_features=5120, bias=False)
                  (lora_dropout): ModuleDict(
                    (default): Identity()
                  )
                  (lora_A): ModuleDict(
                    (default): Linear(in_features=13824, out_features=32, bias=False)
                  )
                  (lora_B): ModuleDict(
                    (default): Linear(in_features=32, out_features=5120, bias=False)
                  )
                  (lora_embedding_A): ParameterDict()
                  (lora_embedding_B): ParameterDict()
                  (lora_magnitude_vector): ModuleDict()
                )
                (act_fn): SiLU()
              )
              (input_layernorm): Qwen2RMSNorm((5120,), eps=1e-06)
              (post_attention_layernorm): Qwen2RMSNorm((5120,), eps=1e-06)
            )
          )
          (norm): Qwen2RMSNorm((5120,), eps=1e-06)
          (rotary_emb): Qwen2RotaryEmbedding()
        )
        (lm_head): Linear(in_features=5120, out_features=151674, bias=False)
      )
      (mlp1): Sequential(
        (0): LayerNorm((4096,), eps=1e-05, elementwise_affine=True)
        (1): Linear(in_features=4096, out_features=5120, bias=True)
        (2): GELU(approximate='none')
        (3): Linear(in_features=5120, out_features=5120, bias=True)
      )
    )
  )
)
[INFO:swift] model_parameter_info: PeftModelForCausalLM: 15254.8823M Params (137.6256M Trainable [0.9022%]), 0.0001M Buffers.
/mnt/beegfs/xr/lm_initial_step/envs/swift_env/lib/python3.10/site-packages/swift/trainers/mixin.py:94: FutureWarning: `tokenizer` is deprecated and will be removed in version 5.0.0 for `Seq2SeqTrainer.__init__`. Use `processing_class` instead.
…
